BSAT Back-End/AI-onnx/IRCNN_Lx1.onnx (onnx, 755305 bytes, 14 tensors)

model.0.weight f4 [64, 3, 3, 3]
00000000: f8a8 a03d d817 2a3d 6a8c 8e3d 1f81 0a3d
00000010: 96ce fc3d 832f c23d f18c 37be 23cd 5cbe
00000020: 3b95 05bd 88a7 94bb f29e 71bd 68ff dabc
00000030: ca78 88bd 87ab e4bd c7ce 04be e766 213e
00000040: c2bc 193e 7e2b 123d dce4 c3bb e77a 39bc
00000050: fced 51bd a772 51bc 5814 acbd 0242 fbbc
00000060: db36 2e3d 614e dd3d 6fff 963d 7a5f 95bd
00000070: a919 ecbe 1817 cfbd a31a e7be 6571 88bf
00000080: 1a94 e0be 3748 afbd 383a eabe 2d50 c0bd
00000090: c239 073e 6dd5 d4bd af0c 013e 631f c2bd
000000a0: 86b4 ddbe 40ce b6bd b7bb 093e 90ce b2bd
000000b0: e050 f93d 8cc6 8a3d 879e dabc 0c26 a43d
000000c0: 8ec6 fcbc 851a 59be cd6b 33bd 3ced 993d
000000d0: 38f1 6dbc 8663 a43d a8f9 0abe fb07 66be
000000e0: 5d4b be3e 662a 4f3e ada5 ecbd af5b 59be
000000f0: 4b44 7bbd 50de 533e 77e6 18be 7163 03be
00000100: aaff 6dbe 9735 c13e 83fd 693e bfac edbd
00000110: b2d1 60be dd6f edbc b4b9 6b3e 70ad 11be
00000120: 2cf1 dbbd c6e5 59be ab5c a23e c035 653e
00000130: 1446 e5bd be32 5bbe b954 9cbc c68d 683e
00000140: 2999 f5bd 6852 52be 8d1c 253d f14c b43c
00000150: 8762 00ba f00e 0dbd 176e 383d 0e53 323d
00000160: 65b4 433e 7f83 46bd 78bc c1ba 266b 8c3e
00000170: 3937 173d de5f 1a3d 3199 2abe f957 e7bd
00000180: d4b6 37bb 3551 093d 3db7 4ebe 5265 0abe
00000190: 5fca 5cbb 5039 aabd d745 343e 4ec8 52be
000001a0: 476c 8b3e abd3 5bbd e8bb 9d3d cec9 49bd
000001b0: b599 973d 072f 113c e361 6bbc 5e33 d6bc
000001c0: a26e 92ba c1ba de3d 24f9 91bd 44ea 93bd
000001d0: 5945 a53c 3e52 d8bc 5a46 bc3d f038 79bd
000001e0: b7e6 fdbd b31e a13e 42a7 363d 26d0 04be
000001f0: 67bf 043d 9ea3 eabc 5692 90bb fc71 3bbe
00000200: a000 f6bd 4be8 1d3a ea05 583e fe95 a4bd
00000210: 1664 b43d 8d2f 3dbd 32b9 0c3d c54f eebd
00000220: ff59 49be 4c14 c8bd e5fd 1abe 7980 0ebe
00000230: ef28 2cbe 9bfe c3bd be85 4abe f06c aebd
00000240: 7fe0 c9bd 33a5 32be e64d 80bd 7ce4 fcbd
00000250: 618e f5bd 72ee 0cbe cf04 84bd e7ee 34be
00000260: 3e55 9abd 946d dfbd 4afc 25be 0136 ccbd
00000270: a601 edbd 7374 b1bd 2e7e 0bbe 46c7 bbbd
00000280: fdb0 2ebe df51 d4bd c518 af3d 8a4e 1b3d
00000290: 5206 47bd 1160 d63d 0dba 81be 1be6 efbd
000002a0: f6da 253d 7c62 993c a248 e7bd 2e59 5ebe
000002b0: 31e0 e8bb 767f 153b b057 7bbe a8eb a03e
000002c0: c508 6f3c 72c7 d0bd a963 033e e75c 8e3c
000002d0: 7761 71be db76 edbc d5f0 41bd 4aca d2bd
000002e0: df89 903e 8cfe e73d 48ef 923c 9ed9 963e
000002f0: 88f2 5a3d c624 04be f0b8 5a3c 9285 2b3c
00000300: 8844 f5bd c671 fcbc 0597 ea3d d30b a4bd
00000310: aac2 093e e384 1d3e f6cb 723c 5fe2 4bbd
00000320: 7b46 5ebd acf5 c83d 1174 4d3e 0ad9 82bd
00000330: 0129 823d 475e 9bbd a068 15bd dfe5 ffbd
00000340: 18c1 623d 3f20 ed3b 595c 87bd c448 203f
00000350: 3901 85bd 2ef1 11be a9f2 7cbe 8413 52be
00000360: d2f5 b03c e1d8 c0be cf16 04bf 0bcb ce3e
00000370: cbaf 223c f7d8 b3be 6c58 d93e bf2a b83e
00000380: 32bf 00b9 9c01 b63c 5172 6dbe 3f63 8fbe
00000390: c780 803e 03e1 853c 602e 6abe e23b 553e
000003a0: 6dce 6d3e 9618 3cbc 1e7f d53c e5de 02bb
000003b0: 3a78 b13d 79fb 2c3c 5e49 89bb c0d8 afbc
000003c0: 0883 fabd 36e1 eebb 171c 52bd 74dd 033d
000003d0: 434c a53d 4468 c93c 51dd a9bd d324 053f
000003e0: bc85 5f3c a1f0 37be 939e f9bd 7a05 07bd
000003f0: 7261 6cbc a72c 1f3d 86f7 783d b983 bbbc
0.07844728 0.041526645 0.069603756 0.033814546 0.12344091 0.094817184 -0.17924859 -0.21562628
-0.03261302 -0.004536573 -0.058989473 -0.026733115 -0.06663664 -0.11165529 -0.12969504 0.1576191
0.15013412 0.03568601 -0.00597821 -0.011320806 -0.05125235 -0.012783683 -0.08402318 -0.030671123
0.042532783 0.10805965 0.07372939 -0.07293601 -0.46113327 -0.10111827 -0.4513751 -1.0659605
-0.43862993 -0.08558696 -0.45747542 -0.09390292 0.13205627 -0.1039227 0.12602495 -0.09478643
-0.4330179 -0.08926058 0.13450514 -0.08730805 0.12173629 0.06776151 -0.02668692 0.08015069
-0.030856397 -0.21201523 -0.04380398 0.07515952 -0.014522843 0.08026795 -0.13571799 -0.22463982
0.37166873 0.20231017 -0.11555038 -0.21226381 -0.061344426 0.20690274 -0.14931665 -0.12830903
-0.2324206 0.37736198 0.22850613 -0.11605214 -0.21954992 -0.028984005 0.23020059 -0.14226317
-0.10739359 -0.21279058 0.31711325 0.22383785 -0.11195007 -0.21406075 -0.019083368 0.22710332
-0.119921036 -0.20539248 0.04031043 0.022009345 -0.0004897494 -0.034438074 0.045026865 0.04353624
0.19111784 -0.04846525 -0.00147809 0.27425498 0.0369179 0.037689082 -0.1666 -0.11296076
-0.0028032558 0.03352471 -0.20187087 -0.13515213 -0.0033689959 -0.08311713 0.17604767 -0.20584223
0.27231047 -0.05366866 0.07701856 -0.04926472 0.07402364 0.00886131 -0.0143666 -0.02614754
-0.0011171887 0.10875464 -0.07127598 -0.07222417 0.02017467 -0.026406404 0.09193106 -0.060845315
-0.12397521 0.31468734 0.044593103 -0.12970027 0.032409098 -0.028642472 -0.004411976 -0.183052
-0.12011838 0.0006023689 0.21096006 -0.08036421 0.088081524 -0.046187926 0.034356304 -0.116363086
-0.19663237 -0.09769496 -0.15135916 -0.13916196 -0.1681249 -0.095700465 -0.19777581 -0.08516872
-0.09857272 -0.17445831 -0.06264858 -0.123482674 -0.11990047 -0.13762835 -0.0644623 -0.17669259
-0.0753579 -0.10909572 -0.16209522 -0.09971238 -0.1157258 -0.08664789 -0.13622352 -0.09168868
-0.17059703 -0.10367178 0.08549646 0.037916698 -0.048590012 0.10467542 -0.25337258 -0.11713811
0.04049202 0.018723719 -0.112931505 -0.21713707 -0.007106804 0.0022811568 -0.24545169 0.3142979
0.014589493 -0.10194291 0.12830986 0.017378284 -0.23572336 -0.028987339 -0.047348816 -0.1029249
0.28230187 0.11327848 0.017936364 0.29462904 0.053453952 -0.12904653 0.013349757 0.010468857
-0.11975962 -0.03081597 0.11454586 -0.08010068 0.13453165 0.15382724 0.014819136 -0.04977643
-0.054266434 0.09812483 0.20063807 -0.06389053 0.06355477 -0.07586341 -0.03647673 -0.12495016
0.05535993 0.00723651 -0.06609411 0.6261103 -0.06494374 -0.14252159 -0.24701943 -0.20515257
0.021601591 -0.37665465 -0.51597303 0.40389284 0.009929608 -0.3512647 0.42450273 0.35970113
-0.00012278257 0.022217564 -0.2318814 -0.28005406 0.2509825 0.016342646 -0.22869253 0.20823625
0.23223276 -0.011480471 0.02606159 -0.0019969281 0.086655095 0.010558003 -0.0041896543 -0.02146566
-0.122320235 -0.007290031 -0.05129632 0.032193616 0.080711864 0.02458585 -0.08294166 0.52009314
0.013642725 -0.17962886 -0.12188449 -0.032964207 -0.01442753 0.038860943 0.06078293 -0.022889959

model.0.bias f4 [64]
00000000: 5741 333e ec6d 373e 5897 303d ae76 d43e
00000010: c4b0 b03e a7e3 e53e 1a1a 363f aafc 173f
00000020: 0dec 66bd 801e 373f fef6 af3e 4128 99be
00000030: 7566 383f de70 1b3e 5fec a7be 97b0 683e
00000040: 8cdc 82be 751e 303f bdb2 c93e 7bd4 2e3f
00000050: 11a4 003f 9163 ff3e 347e 943e 5386 5abe
00000060: 19d5 703f 799c 5c3f f465 a2be 4809 8bbe
00000070: 0283 5bbf 7fce a33e 7801 953e f595 d1be
00000080: 67fe 58bf 9244 ba3e 2b31 1d3f 6b55 153f
00000090: 94b7 3a3e d8c6 0c3f a8f6 913e 8d14 593f
000000a0: 52b6 c3be 222b 7d3d 135d cc3e 866d 1d3f
000000b0: d34d 3dbf dd56 dd3e d7fe bc3e dc49 813e
000000c0: 64ae 843e 8090 fc3d f851 273f ae78 863e
000000d0: 455d 143f fc13 2f3f 76ac 903f fd0c 433e
000000e0: e52f 0a3f d8e2 a8be bd2b 193f 3bb9 6abf
000000f0: 80f7 413f ce98 e53e 3d0f 83bd 55cb 393f
0.17505394 0.17913026 0.043113083 0.41496795 0.3450986 0.44900247 0.7113358 0.5936991
-0.05637746 0.71530914 0.34368128 -0.29913524 0.7203134 0.15179774 -0.32797524 0.22723614
-0.2555889 0.68796474 0.3939418 0.6829297 0.50250345 0.4988065 0.29002535 -0.21340303
0.9407516 0.8617626 -0.3171841 -0.2715552 -0.8574678 0.31993482 0.29102683 -0.4093472
-0.8476319 0.3638044 0.6140315 0.5833346 0.18234092 0.5499091 0.28508496 0.84796983
-0.38225037 0.061808713 0.3991476 0.61495245 -0.73946875 0.43230334 0.36913177 0.25251663
0.259143 0.12332249 0.6535945 0.26263946 0.5795482 0.6838987 1.1302631 0.19047923
0.5397933 -0.32985568 0.59832364 -0.9168889 0.7576828 0.44843143 -0.06399391 0.72575885

model.2.weight f4 [64, 64, 3, 3]
00000000: 56de 183c ca6b 82bb e5b6 a6bc 636b c73c
00000010: 1655 b53c b4e2 403c 6065 c03b a527 4c3c
00000020: 7c7b 1a3c d411 f83c d453 553d 5443 a43c
00000030: df76 0b3d 9952 053e a01c 0a3c d2ef 373c
00000040: d1f3 9a3d 043e d93c 8bd0 e63b 5c20 443c
00000050: ec11 233c a343 cbba d850 323b 15b8 893a
00000060: bed9 7abb 66cf 243c 07d6 efb9 d3b9 fd3b
00000070: e348 783c 1175 c8bb 0f5e c2bc ebb0 183d
00000080: 95c0 89bc 2a4c e3bb 63e6 2c3d 6f54 9d3b
00000090: 9c05 2d3a c161 3938 9245 73bc 4c81 86bc
000000a0: 5fe8 0dbd 16ac 47bd 6242 3f3b 6331 89bc
000000b0: e5d6 4cbc 423a ed3a 27a6 f93b 0d43 a03a
000000c0: 6a4e 41bd 9377 0dbd 7676 9dbc 98bc 23bd
000000d0: 48da f3bc 8be2 49bd 5b0e aaba 4c62 353c
000000e0: 09cf 953c 96fe a23c e23c 4abe 71c7 753d
000000f0: f252 4f3c 1ad0 873c 66ed 5b3c 6c50 6f3b
00000100: 4a03 2cbc ee7f f33b 356c 51bc bdba 05be
00000110: 13b7 97bc 7723 7cbc 2207 2cbd d469 c6bc
00000120: 2060 9cbb f40e ffbc 9b24 adbc 1546 0abc
00000130: 216f 1cbd 48ce d2bc b630 06bd 0196 27bd
00000140: fa72 28bc 81f2 39bb 22bf e5bc 5e41 4abc
00000150: ae9d f7bb f528 013e d3f7 99bc 7622 99bb
00000160: 446d 85bc f7a7 8abc 31fb 39bb eade 79bc
00000170: ae17 bb3c c35a 803c cbf5 643c 0a8a 48bb
00000180: 1727 06bc eaa7 eebc f11d 283c 1857 0639
00000190: 3761 49bd f733 b9bc aa56 233d d30a 713d
000001a0: 2059 c83c 41cc 823c e04b df3c d77e 9b3c
000001b0: c45a 203c 8746 0a3d eb2a 823c 4658 b93c
000001c0: 1640 58bd d2e4 1e3d 0716 c93c e719 053d
000001d0: 1699 cc3b 3675 4e3c 9b9a 53bc 78d3 5ebc
000001e0: 06ba 1b3c e250 263d a8ad 89bc 3b61 1abc
000001f0: 8db5 a53c a150 e9bb 69ee 563c 1891 183d
00000200: 7ed3 8c3c 6892 393d 722b 713d befb e53c
00000210: a9f7 c03c 4ac2 ca3d 9064 113d 126b 3e3b
00000220: fc39 e7bc 3844 183b f364 793c 3d01 8cbc
00000230: 8500 183d 45f2 71bc fd3a 2abd 5517 c33c
00000240: 397e 86ba 0b9c c33c 87bb 4a3c 4da9 613b
00000250: e5e6 153d 085e f23a d4dc 663c 73e5 a23c
00000260: 3add b33b 8969 183c 2e36 893c c0ff 57bc
00000270: 5b54 f43c de32 343c 0b58 073d 8ada ad3b
00000280: 1588 cc3c 3b48 62bb ff3a 8bbc 684f b5bc
00000290: e606 113b 2603 c33a 8d22 af3c 810d 8bbc
000002a0: ce14 09bc 5fc7 93bc 5eae f5bb de18 45ba
000002b0: d765 373b 7504 193c 1555 4bbc ff1c 3a3e
000002c0: 5710 88bb e425 16bc 8574 92bc f687 6e3b
000002d0: 523d 3a3c 15cd 613c 9478 dd3c 980c 49bb
000002e0: 6794 47be cdbc c53c 8fe6 773c e16c 1c3d
000002f0: fd12 c33c a9f4 58bb 9aa9 833c ff17 753c
00000300: 1ecd 3fbc 8c8d 6d3d 49dc d03b 0b0c 133b
00000310: 2283 973c 5f50 fa3b e6af e3bb 0496 0c3c
00000320: 99cb 21bc edef 69bc fb2b 863c f515 7abc
00000330: b3f0 9abb d51c ffbb ace3 78bc 9014 a63a
00000340: 9b21 48bd 5e94 1cbd 55e0 85bc 443f 2cbd
00000350: 7a04 24bd 94f6 273b ac45 27bc fa0d 1dbc
00000360: 19ee b3bb 1651 653c cf6e 5d3c 6f6d 55bc
00000370: 7b99 dd3d 62e8 b83c 0580 e3bc ec8d 9ebb
00000380: 8f12 10bb 052a b13a 0322 60bd 9420 9e3b
00000390: f801 4dbc 9009 8a3d 9600 e03c 35bb 44bc
000003a0: 346a 2fbd 75ea d8bb 2a31 223b 2524 dfbc
000003b0: dc7f b03c 6752 09bc d345 5b3c 0028 17bc
000003c0: 9754 323c de15 cbbb 3be9 73bc 934f c03b
000003d0: f279 833c b7d3 003d 160d 5b3d c841 183d
000003e0: 1c08 00bc 7d52 153d 9292 2a3d dd39 7bbc
000003f0: 5f9a c8ba c3c4 5a3c ad95 6bbc 3e1e 523c
0.009330353 -0.0039801346 -0.020350883 0.024343198 0.022135299 0.0117728 0.00587146 0.012460624
0.009428855 0.030281939 0.052081898 0.020051636 0.03404891 0.1301979 0.008429676 0.011226611
0.075660355 0.02651883 0.007043903 0.011970606 0.009953003 -0.0015507828 0.002720883 0.0010507131
-0.0038276757 0.010059213 -0.00045745095 0.0077430992 0.015154096 -0.006117471 -0.023726491 0.037278097
-0.016815463 -0.0069365697 0.0422119 0.004801325 0.0006600262 4.4198478e-05 -0.01484813 -0.016419075
-0.034645434 -0.0487481 0.0029183854 -0.016747182 -0.012502407 0.0018099027 0.007618684 0.0012227014
-0.047193922 -0.034537863 -0.019221526 -0.03997478 -0.02976717 -0.049288314 -0.0012974249 0.011070799
0.018287199 0.019896787 -0.19749787 0.060004655 0.012654053 0.016578723 0.013423299 0.003651644
-0.010498831 0.007431022 -0.012782146 -0.13059516 -0.018519914 -0.015389315 -0.04199899 -0.024220385
-0.004772201 -0.03113506 -0.021135619 -0.00843956 -0.03819192 -0.025733128 -0.032761298 -0.04091454
-0.010281319 -0.0028373303 -0.02804524 -0.012344686 -0.0075566387 0.1261328 -0.01879493 -0.0046732975
-0.016287453 -0.016925795 -0.0028378482 -0.015250901 0.02283844 0.015668279 0.013974617 -0.0030599856
-0.008188031 -0.029132802 0.010261045 0.00012811681 -0.049164977 -0.022607787 0.03987757 0.058848213
0.02445656 0.015966536 0.02725786 0.01898138 0.009787265 0.033758666 0.015889606 0.0226251
-0.052795492 0.03879244 0.024546636 0.032495406 0.006243835 0.012601187 -0.012915279 -0.013600223
0.009504801 0.04060448 -0.016806439 -0.009422596 0.020228172 -0.0071202074 0.013118365 0.037247747
0.017190691 0.04530564 0.058879323 0.028074142 0.023555594 0.09900339 0.035496294 0.0029055518
-0.028225891 0.002323402 0.015221822 -0.017090434 0.03710987 -0.014767234 -0.04156016 0.023814837
-0.0010261006 0.023878118 0.012373812 0.0034433187 0.03659715 0.0018491158 0.014090735 0.0198848
0.0054890187 0.009302505 0.016749468 -0.013183534 0.02982538 0.010998456 0.03304295 0.005305593
0.024967233 -0.0034527916 -0.016995905 -0.02213259 0.0022129356 0.0014878258 0.02137878 -0.016974213
-0.008366777 -0.018039403 -0.007497593 -0.0007518659 0.0027984285 0.009339442 -0.012410422 0.18175124
-0.0041523385 -0.009164307 -0.017877826 0.0036396957 0.011367159 0.0137818055 0.027035035 -0.0030677672
-0.19490205 0.024137879 0.015130653 0.038189773 0.023812765 -0.0033104813 0.016072083 0.014959334
-0.011706619 0.057996318 0.0063739163 0.0022437598 0.018495146 0.0076389755 -0.006948459 0.008580688
-0.009875202 -0.014278394 0.016378393 -0.015264024 -0.0047284006 -0.0077854195 -0.015191 0.0012670923
-0.048860174 -0.03822743 -0.016342321 -0.042052522 -0.04004333 0.002562915 -0.010209482 -0.009585852
-0.00549103 0.013996383 0.013515188 -0.013026579 0.1082029 0.022571746 -0.027771005 -0.0048386957
-0.0021983718 0.0013516551 -0.054719936 0.004825661 -0.012512676 0.06740105 0.02734403 -0.012007524
-0.042825893 -0.0066197463 0.0024748542 -0.027238915 0.021545343 -0.008381463 0.013383347 -0.009225845
0.010884426 -0.006197675 -0.014887149 0.005868861 0.016049359 0.031451907 0.053479277 0.03717211
-0.007814433 0.03645562 0.041643687 -0.01533362 -0.0015304795 0.013352576 -0.014378947 0.012824593

model.2.bias f4 [64]
00000000: de8d 3b3f a05c 5b3f 37d9 a13f 989f 463e
00000010: a031 5bbf 3af7 e03e d876 343f 7c51 7a3e
00000020: 650e 0e3f 52c6 033f fea6 ce3e 1bad 2c3e
00000030: c497 8d3e 05b7 ba3e 5034 95bf 1e4a 563f
00000040: 5d83 b33f ef81 ba3e dd0f eebd 7745 a2bf
00000050: 39f9 493f 5fec c03e 49f4 a6bd 2365 5d3f
00000060: 6998 843d 614e 9dbd 5083 203e da65 92be
00000070: 1193 bf3e 6fac b93f ef95 3d3f 2f2d ab3d
00000080: f4f2 ecbc 26cf 7a3f 874e 3e3e f124 963f
00000090: f4ce d2bd ad82 823e aa8c 6cbe ab2d 13be
000000a0: 4763 9e3e 88b3 f13e 6b6d 8f3e 9ebe 853f
000000b0: ddeb ea3e 9b73 0d40 5ede 9e3b 0409 f0be
000000c0: 52a2 dc3d d0e6 953e 6931 053e 1848 c2bd
000000d0: 4913 103f 38c9 663e 6296 783f 4d7c e53e
000000e0: 4200 7e3f 4cc6 523e 105a 5d3e bf35 21bf
000000f0: 1483 383f 1118 7c3f 1d88 463e 5781 e63e
0.7326335 0.8568821 1.2644414 0.19396818 -0.85622597 0.4393862 0.7049384 0.24445146
0.55490714 0.5147449 0.4036178 0.1686291 0.2765485 0.36467758 -1.165659 0.83706844
1.4024464 0.36427256 -0.116241194 -1.2677449 0.7889591 0.37680337 -0.081520624 0.8648245
0.064743824 -0.07680965 0.15675092 -0.28593332 0.3741689 1.4505748 0.74056906 0.083582275
-0.028924443 0.97972333 0.18584643 1.1730024 -0.102933794 0.25490323 -0.23100534 -0.1437289
0.30935118 0.47207284 0.28013167 1.0448797 0.45883074 2.210181 0.0048482856 -0.46881878
0.10773148 0.29277658 0.1300713 -0.09486407 0.56279427 0.22537696 0.97104466 0.44821396
0.99219143 0.20583457 0.21616387 -0.62972635 0.7207501 0.9847422 0.1938786 0.45020553

model.4.weight f4 [64, 64, 3, 3]
00000000: e9aa 59bc 213c 0f3d 3a79 cbbd 3359 d53c
00000010: 583f 023d 3785 093c 0ae1 9fbc 29d0 a83d
00000020: 6256 c83c c325 9a3c 6721 12bc 3643 df3c
00000030: 3d3d 4a3d 51ac 2abe 5c43 673d 5993 533d
00000040: 75a6 ed3d ca81 043d 7c01 c5bd 72e0 7dbc
00000050: d75b 52bd 7779 543c 668d 5b3e 8628 893c
00000060: 141d f73c ed78 cfbd 8a67 b63c 20d8 e1bb
00000070: 3496 fa3b 0552 4f3b d15f e43d 72e9 b33d
00000080: 5449 9f3d 083f a43d d860 37bc 242d 033d
00000090: ba4d 05bd 4e0e 53bd 5f76 d73c 3ffa 0b3c
000000a0: e11c d43c b077 4c3b e211 773c 251e f4bd
000000b0: 47c4 17bb a2ba 6dbd 39aa 123d bc66 73bd
000000c0: 8744 a43d 277b 353e e6c3 253e 5633 5e3c
000000d0: e6e9 e5bd 0629 a0bc bb51 28bd 940d 1ebd
000000e0: 0b21 48bd 7dcf e7bc 4d6f e23e 5bef adbd
000000f0: 267d 7fbd c7bb ab3d ab6b 00bd 6d4e 3ebb
00000100: acf7 87bc 8458 16bb 2d08 9bbc 6aec d13d
00000110: ddd3 903d 9da9 893c 4b4d 373d 178d 30bb
00000120: d26a 743d 1d9a 5b3d 89e5 673a 060e a7bb
00000130: cf50 6abe 8f0f 1bbd 7a4f dabb 3d0b c83b
00000140: ffcf 413b 1d9b 20bd a405 6f3d e807 57bd
00000150: b21b 5bbd 9b0a 903e 3e62 f3bc 2cda b1bc
00000160: 8f92 10be 2e87 b83c 40ec 7dbd 4a8b dbbd
00000170: 5535 673c 07a3 83bd 3349 59bd 36a8 50bd
00000180: e164 b3bd d6ba 8b3d b151 43bc 8a6b 003d
00000190: 0e81 123d 21af d1bb 1901 6c3d 2481 13bd
000001a0: 07bf 853d 4234 743d eb30 83bc 5c87 843c
000001b0: cac2 dfbc 6834 1f3d 5ff1 b3bc 8b62 03bd
000001c0: afcd 383e f999 273c a6ee 823c b51f 64be
000001d0: 4ae3 09bd abd5 663c 65de a2bd 9cbc 63bb
000001e0: d097 f43d 6aa4 ffbd 32eb f63d 7d8c 8dbc
000001f0: bb43 003e d510 a0bc 2789 983c b68e 783b
00000200: f81d 063c 0616 d03b bc9c 3e3d 3a0b 323d
00000210: 0310 163d 0858 0f3b 6ca6 b6bc 9d67 a2bc
00000220: 8e92 2a3c 8eb8 643a 81cd 50bd 6606 32be
00000230: ea9f b3ba f506 29bd be8f 8a3c 0f2d fcbb
00000240: a3ba 2e3d b13a fdbd 37bf 113d 17fd 403d
00000250: 41fe 89be 1d2a 8c3c e0ea 4e3d becc 343e
00000260: d41b 7e3d ac1e ad3b c1bb 163d ae26 fdbc
00000270: 8fb8 39bd 0cc3 2f3e 4cac 09be bf70 863c
00000280: d4ef 96be a670 173d 8bb2 04bb 1059 053d
00000290: dae9 163d 0f97 43bd e98d c7be 95ab 613b
000002a0: bd07 993d e869 2e3e 1ea6 f33c 2368 803c
000002b0: d683 50bb ec80 5bbc 2d31 b13d ed8b 04be
000002c0: 4ee5 31bd 3e0e dfbd 2131 7c3d 1e73 813c
000002d0: 4288 11bd 2719 1d3d 7a4c fc3c 047d 65ba
000002e0: 774b a0bd 3f5d e13c 3ac9 373c e447 b53d
000002f0: eb39 213c 0889 9f3c 57e7 d5bc d3b8 8cbc
00000300: 01c7 883d aeef ad3e a936 4abd b8fc d3bc
00000310: 34e4 8dbd 6788 143d da44 09bc a942 4fbd
00000320: 019a ea3d 057f bdbd 19f9 8bbe fba9 2d3d
00000330: e6f5 cb3d 7ce9 1b3e 4295 1e3d b57f 45ba
00000340: 5f0c 5a3d 1a5d 863b e5ff 75bd cb3f 2a3e
00000350: 9e1e 02bc ca71 d63d 2fb9 35bd dd78 503d
00000360: f46d a5bd 5559 0f3e 6892 233d 8c83 fcbd
00000370: 555a 83bc 11d7 0b3e c600 673e 581f 90bd
00000380: 2237 4abd f5b5 133e e959 0e3d 7c1a 133e
00000390: ff1b 703b 653b 09bf 796b 753d d049 b6bd
000003a0: b5bc fa3e fed4 babd 8bb9 1d3d 0504 0d3e
000003b0: e153 5a3d 770d e9bd 18ce 953d e9a9 25bd
000003c0: 6a33 bd3d 3780 9c3d 1821 33bc 36a5 2b3c
000003d0: 5b48 53bb 9227 493b 8bdf f3bc 7821 b4bc
000003e0: 03f3 88bc 2952 ae3b 1020 37bd 3718 a03c
000003f0: fab9 c0bd 93df 053d 309a 4ebd 64a3 37bb
-0.013285377 0.034969453 -0.099352315 0.02604351 0.03179869 0.008393577 -0.019516487 0.082428284
0.024455253 0.018816834 -0.008919097 0.027253728 0.049374808 -0.16667296 0.056460723 0.051654194
0.11604015 0.03235034 -0.09619424 -0.015495406 -0.051357117 0.012968413 0.21440658 0.016742956
0.030165233 -0.10130487 0.022266168 -0.006892219 0.0076473 0.003163458 0.11151088 0.087847605
0.07777658 0.08019835 -0.011192523 0.03202547 -0.03254483 -0.051527314 0.02630156 0.00854355
0.025892677 0.003119927 0.015079947 -0.11919812 -0.0023157762 -0.058039315 0.03580687 -0.059424147
0.08020883 0.1772276 0.1618801 0.013562044 -0.11226253 -0.019550811 -0.04109357 -0.038587168
-0.048859637 -0.02829718 0.4422554 -0.08492919 -0.06237521 0.08385425 -0.03135268 -0.0029038445
-0.016597591 -0.0022940943 -0.018924797 0.102501705 0.0707166 0.01680451 0.044751447 -0.0026939565
0.059672184 0.05361377 0.0008846154 -0.0050981073 -0.22882389 -0.037856635 -0.0066623064 0.0061048553
0.0029573438 -0.039210428 0.05835499 -0.052497774 -0.05349321 0.2813309 -0.029709931 -0.021710478
-0.14118408 0.022525396 -0.061992884 -0.10719927 0.014111836 -0.064275794 -0.053048324 -0.05094167
-0.087594755 0.068227455 -0.011921332 0.031352557 0.035767607 -0.006399051 0.057618234 -0.03601183
0.06530576 0.05962015 -0.016014537 0.016177826 -0.027314562 0.038868338 -0.02196568 -0.0320764
0.18047212 0.010229581 0.015982937 -0.2227772 -0.033664025 0.014089028 -0.07952575 -0.003474987
0.119430184 -0.12482531 0.12056579 -0.017278904 0.12525837 -0.019539276 0.018620087 0.003792686
0.008185856 0.0063502816 0.046536192 0.043467738 0.036636364 0.002187254 -0.022296153 -0.019824797
0.010410918 0.00087250106 -0.050977234 -0.17385253 -0.0013704274 -0.0412664 0.016914245 -0.007695801
0.04265846 -0.1236471 0.035582747 0.047116365 -0.26951793 0.017109925 0.050516963 0.17656228
0.062038258 0.0052831974 0.03680015 -0.030902233 -0.045342024 0.17164248 -0.13444632 0.016411183
-0.2947985 0.036972664 -0.0020248021 0.03255564 0.036844112 -0.047751483 -0.38975456 0.0034434546
0.07472179 0.17032588 0.029742297 0.015674656 -0.0031816862 -0.013397437 0.08651958 -0.12944002
-0.043431573 -0.10891388 0.06157029 0.015801962 -0.035530336 0.038354065 0.030798186 -0.00087542855
-0.07826894 0.027510284 0.01121741 0.08851603 0.009840469 0.019474521 -0.026111288 -0.017177975
0.06678582 0.33971924 -0.049368534 -0.025877342 -0.06928292 0.036262896 -0.008378232 -0.05060068
0.11455155 -0.09252743 -0.27338484 0.042398434 0.09959011 0.15225786 0.038716562 -0.00075339834
0.053234454 0.004100454 -0.060058493 0.16625898 -0.00794187 0.10470922 -0.044366058 0.050896514
-0.080776125 0.13998921 0.039934546 -0.12329778 -0.016034285 0.1365626 0.22558889 -0.07037228
-0.049368985 0.1442488 0.034753714 0.14365572 0.003663778 -0.53606254 0.059916947 -0.08900797
0.48972097 -0.09122656 0.038507026 0.13771065 0.05330265 -0.11379521 0.073147 -0.040445242
0.09238322 0.076416425 -0.010933183 0.010476401 -0.0032239172 0.0030693752 -0.02976968 -0.021988615
-0.01671744 0.005319853 -0.04470831 0.019542797 -0.09410472 0.03268392 -0.050440013 -0.0028020972

model.4.bias f4 [64]
00000000: bcb7 33bd e4ec bc3d ffef 263e 37b3 ab3e
00000010: 1ff4 f93e 5335 063f 93ca 173f 6623 b83e
00000020: 9ec6 3abf df50 cebc 5bc4 043f 64fa 4b3f
00000030: c703 d2bd 4585 b43e 90dc 963e 7ede 5e3e
00000040: 6281 4f3f 5a61 c63d a2e0 ce3e 73b7 0bbe
00000050: ad24 a83e d915 8e3e a254 5d3e 9644 613f
00000060: dcd6 0b3f 6ee8 da3e 32ee fa3e 14ab d73e
00000070: 4a5c 593f e2a4 0a3f 0c91 523e c68d aabd
00000080: eb20 0b3f 9f2b e53d d93a b03e c87c a63d
00000090: 45c1 0e3f af67 283f e46e acbe 89e8 443f
000000a0: f6e0 203f cd13 93bd c6a3 603f a623 c03e
000000b0: b7e7 23be 96e7 9f3d a45e 193f 5be6 6f3e
000000c0: ae17 bbbd 2c74 8d3e 3eac f63c fc65 873f
000000d0: 64a1 e63e 12fb 113f d11d 1e3f c413 113f
000000e0: 8b1d 053f 8bbe b43e 4c4c ed3e 9b68 e5bd
000000f0: 65c9 2a3e 87f6 853e 69b2 343d be44 023f
-0.043876395 0.09224871 0.16302489 0.33535168 0.48819062 0.52425116 0.5929348 0.35964507
-0.72959316 -0.025185047 0.51862115 0.7967894 -0.10254627 0.35257927 0.2946515 0.21764562
0.810568 0.09686537 0.40405756 -0.13644199 0.3284048 0.27751043 0.21614316 0.8799528
0.54624724 0.42755455 0.49009854 0.4212271 0.84906447 0.5415784 0.20563143 -0.083278224
0.54347104 0.11189961 0.34419897 0.08129269 0.55763656 0.6578321 -0.33678353 0.7691732
0.62843263 -0.07181511 0.877499 0.37527198 -0.16006361 0.078078434 0.59910035 0.23427717
-0.09135376 0.27627695 0.030111428 1.0577998 0.45045006 0.5702373 0.61764246 0.56670785
0.51998204 0.35301623 0.46347272 -0.112015925 0.16678388 0.26164648 0.044115458 0.5088614

model.6.weight f4 [64, 64, 3, 3]
00000000: 7e99 77be 00ef 573d 7a62 5c3d aaef 873d
00000010: 9f82 7abe 6e66 a6bd 80ec af3c 0ac5 75bd
00000020: 34be 6dbd 17ae 43bc 7f62 37bd 861b 2cbd
00000030: 46b4 513d 8c0b e6bd c349 07bd 228f 08bd
00000040: d78a 6cbc d7ce b7bc f5ac 6b3d d53e 09bd
00000050: 469d 90bc 6174 aabc b1d3 a4bc fb84 0e3c
00000060: 5177 a53c 04f7 9abc 176e 58bd 586d 8fbc
00000070: 2159 edbc 5089 a4bb 3303 1fbe be61 8ebb
00000080: 044d e23c d20a 28bd 2d9c 53bb 0e48 41bb
00000090: 9d83 b53c 5645 143c 1652 193d d51b 31be
000000a0: b5de 0bbe 0862 b13b 21a5 633d d1fd 833c
000000b0: 2c13 fb3c f5ce d2bc 8ce4 d53c 43d3 a73c
000000c0: 4272 223b 7027 653e 3ee4 32bd 80a5 763d
000000d0: eb5f 7abd 6318 6abd d1b8 053d ecae 1a3d
000000e0: 33fc ed3b 54ac acbd ff18 033e 9219 f13c
000000f0: 7597 6f3c 80e5 a1bb 9762 853c ec06 64bd
00000100: 811c 8c3d d7cf 9d3c c26f f43d 6729 82be
00000110: d7d5 4a3a f89c babc 25bb 16bc 0655 1d3c
00000120: e998 e13a 792b a63c 630c 463c 1c73 39bd
00000130: 1951 943d ace6 9bbb 3c80 b23c a731 3bbc
00000140: bdf7 0abc 76cc 0dbd 1931 893d 807b ddbb
00000150: 5f31 a03d ac3c 6cbe 26e6 9bbd bf83 133c
00000160: be11 08bd 3cff e4bc 1421 7b3c 95d5 203c
00000170: 6d39 31bd ab7c 01be 6a29 6c3d be86 9dbc
00000180: 19a4 e8bc 56ab 5f3d 47db 883c 294b a5bd
00000190: 821f 4c3d b76d c03c 3a64 673c 53b1 793e
000001a0: 1c2e 1f3d fa68 053c 5fbd 09bc 6afb 90bb
000001b0: 909d 023d 524d 45bc 0ede 2fbd 64ab dfbd
000001c0: 47ad 16bd 3bb2 8a3b 0a92 643d affd 703c
000001d0: bda2 3fbb 96b2 0cbc 7023 f33c 86a5 2dbc
000001e0: ff3a 073a e4c5 953c 4ed1 593c 1dfa 053c
000001f0: f67a d2bb 9bd5 a43c 7688 483d bfac d73c
00000200: bdca 0f3d 5d69 4abd edd2 713e 19d2 a33a
00000210: 6301 99bc 28be 293c dbd8 403b 4c4d b33d
00000220: 035c 183c a9fc 96bd 85d9 8fbd 0781 723d
00000230: d4ee 653d 38cd 5cbd 2b96 2ebd 3631 ebbc
00000240: f6b9 b93c c7e9 bc3c 2984 e13b 796b 6fbc
00000250: 4df0 e8bc 89bc 08bb f8dc 4bbb da1d 673c
00000260: 6ef3 803c d3e1 09bd 6d12 37bd 5ab4 c43c
00000270: c681 0bbe 3f68 e1be bca2 0f3d 5a5d b0bc
00000280: 5a5c 41bd f7ee b63d 0709 b33c 90a9 783d
00000290: 928b 893c cc1a 9f3d b2f4 bd3b 1307 a03c
000002a0: c70e 2d3d fc5c 493d d814 febc f048 163d
000002b0: 8593 b2bd 6687 103c cb03 1cbe 65d9 dfbd
000002c0: 6dae 893d 65cb 82bd fc3c 7b3c c068 9e3d
000002d0: 3ca0 a93d 7354 f1bc 3cad 5dbd 0975 08be
000002e0: 5081 94bd 182b 7cbc 6058 cfbc 70d7 6e3d
000002f0: 78b3 a23c e71d a93e c7ce 53be da64 43be
00000300: 3269 66be 6eab 6fbd 57c4 a83d 27f0 66be
00000310: 27fe fc3d 22f2 023e 8bd8 c6bd 42e8 b13c
00000320: 46cb 2b3d 5f68 223e a74a 0d3e ddca c43c
00000330: c05e 173d 2803 e2bc eb0a d7bc 3766 fb3c
00000340: 872f 623c 4918 e13c 1dd7 653e 6799 973e
00000350: 2209 a13d 2903 033d 1a87 3c3c 1c19 3c3d
00000360: 15a8 07be c748 9b3b 30f0 f7bd f5e4 c8be
00000370: 0cdf febe a27a abbe 2437 9fbd 56e0 2dbd
00000380: 5c82 10be ba39 cbbc 5fc4 0fbc c590 b4ba
00000390: 647a 173e d1fc 12be eb1a 42bd 8852 4dbd
000003a0: e99b 523d 3c6b 453d 85dd 4bbd 4c34 c03c
000003b0: 195b 0eba 86e8 c53d 2307 47be 68c4 52bd
000003c0: 5e11 4c3a 0011 b0bd f619 89bc ffc2 e3bd
000003d0: 7abf c63c 3500 8c3d dbd3 903e 0043 c63e
000003e0: b1cc 9bba 2d08 353d b683 0f3d 2336 cc3a
000003f0: dac7 903d baf4 17bd d544 3c3b 2cac e83c
-0.24179646 0.052718163 0.053804852 0.06637509 -0.2446389 -0.08125006 0.021475077 -0.060002364
-0.05804272 -0.011943362 -0.044771668 -0.042018436 0.051197313 -0.11232671 -0.03302933 -0.033339627
-0.014437399 -0.022437496 0.05753799 -0.033507187 -0.017653119 -0.020807447 -0.020120474 0.008698697
0.020198496 -0.018916614 -0.052839365 -0.017508194 -0.028973164 -0.0050212517 -0.15528564 -0.004345148
0.027624615 -0.041025944 -0.0032289133 -0.002949241 0.022157485 0.009049734 0.0374318 -0.17295773
-0.13659175 0.0054132976 0.0555774 0.01611224 0.03064879 -0.02573345 0.026109956 0.02048648
0.0024787341 0.22378325 -0.0436747 0.060216427 -0.06112663 -0.057152163 0.032646958 0.037764475
0.0072627305 -0.084313065 0.12802504 0.029431138 0.0146235125 -0.0049406886 0.016282363 -0.055670664
0.06841374 0.019264145 0.119353786 -0.25422212 0.0007737553 -0.022779927 -0.009199892 0.009602791
0.0017211708 0.020284401 0.012087914 -0.045275792 0.07242031 -0.004757723 0.021789663 -0.011425412
-0.008481917 -0.034618817 0.06698818 -0.006759107 0.07821917 -0.2307002 -0.07612257 0.009003579
-0.033220045 -0.027953736 0.015327711 0.009816547 -0.043267656 -0.12645213 0.057656683 -0.01922929
-0.02839856 0.054606758 0.016706122 -0.08070976 0.049834736 0.023489816 0.014123017 0.2438405
0.038862333 0.008142704 -0.008406966 -0.004424502 0.031888545 -0.01204236 -0.042936377 -0.10921362
-0.036786344 0.0042326725 0.055803336 0.01470892 -0.0029241287 -0.0085875 0.029679984 -0.010598546
0.00051586324 0.018282838 0.013294531 0.008177307 -0.0064233495 0.020121386 0.048958264 0.026327489
0.035105456 -0.04941689 0.23615618 0.0012498527 -0.018677419 0.010360278 0.002942613 0.087549776
0.009299281 -0.0737241 -0.070239104 0.05920508 0.056135967 -0.05390665 -0.04262368 -0.028709989
0.02267168 0.023060692 0.00688221 -0.014613026 -0.028434897 -0.0020864329 -0.003110705 0.014106238
0.015741076 -0.03366263 -0.044695307 0.02401178 -0.13623723 -0.44024846 0.035067305 -0.021528888
-0.047207214 0.08932298 0.02185489 0.060708582 0.016790185 0.07768783 0.005796992 0.019534623
0.04225042 0.049160942 -0.031015798 0.036690652 -0.08719543 0.008821344 -0.15235822 -0.109301366
0.06722722 -0.06386451 0.015334364 0.07734823 0.082825154 -0.029459214 -0.054120287 -0.13325895
-0.07251227 -0.015391134 -0.025310695 0.058310926 0.019860968 0.33030626 -0.20684348 -0.1908144
-0.22501066 -0.058513097 0.08240574 -0.22552548 0.12353163 0.12787679 -0.09709271 0.021717194
0.041941904 0.15860127 0.13798009 0.024022514 0.036955595 -0.027589396 -0.026250323 0.030688388
0.013805277 0.0274774 0.2244534 0.29609224 0.0786307 0.031985436 0.01150682 0.045922384
-0.13247712 0.0047389003 -0.12106359 -0.3923718 -0.49779546 -0.33492 -0.07774189 -0.04245027
-0.14112228 -0.0248078 -0.008774846 -0.0013776055 0.14792782 -0.14354254 -0.047388952 -0.050127536
0.05141822 0.04819797 -0.049771804 0.023462437 -0.0005430445 0.09663491 -0.19436316 -0.05145684
0.00077845703 -0.085969925 -0.016736012 -0.11121177 0.024261225 0.06835977 0.28286633 0.38722992
-0.0011886564 0.04419725 0.03503772 0.0015580099 0.07069369 -0.037098624 0.002872755 0.02840241

model.6.bias f4 [64]
00000000: 798c ddbe 6bde bd3e 794b 0f3f 1284 533f
00000010: be6d 8d3e 8233 bfbc f5a8 293e 71da 03be
00000020: 9498 b53e e8b6 5a3f c90c 663d 77a5 6bbe
00000030: 2c42 853e 97f9 5fbe 8149 1abe acc7 dbbe
00000040: 6720 093e a1d8 aabc c6e2 2639 898b 033f
00000050: 768f d13d ca2a 2dbe 664e 8e3d 7e78 ef3e
00000060: f857 d73d ba74 b0bc 72f2 0d3d f6e9 003f
00000070: 0cef e6bd 1354 4c3f 24ec 4e3e 1488 163d
00000080: 08ef 813e c2d5 853e e256 a3be 33d9 d13b
00000090: a0ce 1c3f f844 c5bd d933 b23e db9b c83e
000000a0: 840f b13d 5505 f53e 4345 013f 988d f33d
000000b0: 9e97 9e3d 1826 3b3e 8d32 da3e 39ce 29bf
000000c0: 4a90 47be 4303 ea3e 4173 353f 6aa0 313f
000000d0: 20b9 023f 7f68 24bf 5e7a 6a3f a188 433f
000000e0: dec1 453f 0900 4bbc b5d6 8a3f 0ce5 213f
000000f0: f445 0ebe e1f4 9d3f 2436 5b3e 274c b73f
-0.43271235 0.37083754 0.5597454 0.826234 0.2762279 -0.02333999 0.16568358 -0.12876298
0.3546797 0.8543534 0.056164537 -0.23012339 0.26027048 -0.21872555 -0.15067102 -0.42925775
0.13391267 -0.02085525 0.00015915473 0.5138479 0.10232441 -0.16910854 0.06948547 0.46771616
0.105148256 -0.021540035 0.034655042 0.50356996 -0.11276063 0.7981579 0.20207268 0.036750868
0.2537768 0.26139647 -0.31902224 0.006404066 0.61252785 -0.09632295 0.34805182 0.39181408
0.086455375 0.4785563 0.5049631 0.11892241 0.077437624 0.1827625 0.42616692 -0.66330296
-0.19488636 0.45705613 0.7087899 0.693854 0.5106373 -0.6422195 0.9159297 0.76380354
0.7724894 -0.012390145 1.0846773 0.6324012 -0.13893872 1.2340356 0.21407372 1.4320115

model.8.weight f4 [64, 64, 3, 3]
00000000: be0f 17bc 7dc2 43bc cc3a 773b bdbd eebb
00000010: 1f7a 71bb 0595 5bbc 2db1 05bd c473 55bb
00000020: 3a4f 48bc afa5 373d bf96 e53d fb67 a83d
00000030: 1cc5 6ebc 0b26 403c e28d 613d 808a 893c
00000040: 409a 83bd 4b13 51bd 1df0 cb3c 1bfc 92bd
00000050: 64f7 373c baf8 713d 902d d73d 63e4 a4bc
00000060: 478e 1b3d 68f1 4b3c 6946 363d 460b a7bb
00000070: 6af5 9fbc 9369 973d a13c 033d aa6a 843c
00000080: 7e0f 7e3d afa5 03bd 39f0 a1ba 7b88 ffbc
00000090: d10b 083d 88f7 903c 1a18 fe3c 6a4e 1bbd
000000a0: 110b 42be 74a5 293d c739 3f3d bd85 8ebc
000000b0: 89cf 3b3d 0bc8 45bb a0a9 33bd 4c2a c53c
000000c0: a5e5 3d3d 3eb7 04be 1be7 563b 7add c63b
000000d0: 2401 d73d 6f14 1f3d 3204 3cbd b328 d0bc
000000e0: d2ef 9dbc 7088 2a3c e7c2 0b3d 9188 84bd
000000f0: ddab 05bd e5bd 05bc 0d0b 87bc e768 a7bb
00000100: f378 473b 443a e13c bb44 9cbd 543a 3ebe
00000110: bc91 f63c 3635 a43c 459b 803d 1571 b73c
00000120: d59a 983b 97aa 31bc d03c 8abd 9627 5bbd
00000130: e516 40be 9fe0 53bd 963e 42bd cf2a d4bc
00000140: 6abb 72bc 4f51 0abd 8873 b73d ee1b 1ebd
00000150: 5ad4 14bc 6cdf aabd fe8b 653b 5a52 353d
00000160: f52d 973b 5cde 343d cc17 063c d5ed 1d3c
00000170: dfb7 0abc 44c8 363d 3223 ba3d e04e 193d
00000180: f902 11bd 50ed 43bc 3aef c2b9 bfb1 5c3b
00000190: 4aa6 6fbb 8bc0 903c 14ac 28bd aac8 46bc
000001a0: 5ff2 8d3c 3483 233d 53f6 f23d dff2 363c
000001b0: b30d 8b3d e1f1 0a3e 2fb6 7c3d 4aa9 b23d
000001c0: 8720 35be 7d97 a03c d92d 433c 0dcc 073d
000001d0: ce50 ed3c c67b 7eba 67aa 983b a894 283d
000001e0: 3767 c03c 8a72 babb 6a45 68bd bac1 c63c
000001f0: 6d5f 0e3d 3967 d33c 0c4c 52ba f803 6b3b
00000200: e4ce 783d af82 5abb b169 213e 1e4a 6f3d
00000210: 798c b03c ad36 0e3d 412f 823d 1c64 d13c
00000220: 46f4 bf3d b216 f13b 7284 5a3d 6a14 97bd
00000230: 11af 15bd 945d 543c 1418 a03b 3b83 393b
00000240: bddf 053d 032e 03bd 626a 84bc a370 d7bc
00000250: 2e45 66be 5068 bcbc 8e48 813d 6305 8fbc
00000260: 4e4a 113d 9d6d 073c 958d 27bd 0161 22bb
00000270: 9a23 3bbd 2ae9 113e f63d 03be ec34 5dbc
00000280: 4e0a 0abd d014 5bbd cb03 0abd 3534 f83c
00000290: 699e 0b3c ce07 4dbc 902c 963d 2615 9bbd
000002a0: 4308 ba3b b46a 933c 174a c53c afec 9cbd
000002b0: c1fd 8abd d1fb 6cbb 6b96 69bd 75d3 113e
000002c0: 460b e1bd 47f1 a5bd 826c 313c 4c9a 83bd
000002d0: 4086 b1bd 82a7 febd cb91 82bd f666 e1bc
000002e0: 7d38 af3c 7d47 92bc 2683 0bbd 5738 a5bd
000002f0: 4a75 56bd 14cd 8ebd cbfe a1bc 4115 b5bd
00000300: 53a3 acbd 2b11 a93c 9b05 32bd 467c 31bd
00000310: 6188 28bd 4776 21bd 97ce 053d 77c4 cc3c
00000320: 8f20 9b3d 438e e23d fae2 87bd 5db4 9b3d
00000330: 84a9 093d 68a1 9bbd 3e58 d7ba 53a3 9cbc
00000340: 09b6 04bd 4b62 073a f788 70bd f345 5e3d
00000350: 5a98 c2bd 4407 19bd 9625 d9bd 49ed b5bd
00000360: 8182 993b 58ab b93c 350c f83c a2ff 20bd
00000370: 16e5 d03d 5620 c23d 8afd d03b 0d25 3e3d
00000380: 50ff 6839 552b 1c3a 3f57 fbbc 12f2 14bc
00000390: 77e8 76bc 06a8 aabc 5e72 cdbc 0169 a73c
000003a0: ed19 9abb 21b0 43bb 2634 af3c da52 cab9
000003b0: 801c 7c3d c879 75bc dacc 09bb 98e2 2ebd
000003c0: 8234 2039 f1c6 9c3c 150c bf3c 56f8 4d3c
000003d0: 88ac b33b 36eb 9b3c 98de ccbd f278 69be
000003e0: e60b acbd 0133 8d3c eb84 703c eaec d33c
000003f0: 91d6 6cbd 4554 a1bd c52d 5bbd d6e1 ebbb
-0.009220062 -0.011948225 0.0037724255 -0.007285802 -0.0036846471 -0.013402228 -0.03263967 -0.0032570222
-0.01222592 0.044835743 0.11210393 0.08222958 -0.014573362 0.01172782 0.05506695 0.016789675
-0.06425905 -0.05104379 0.024894768 -0.071769916 0.011228416 0.059075095 0.10506737 -0.020128435
0.037977483 0.012447692 0.044500742 -0.0050977794 -0.019526202 0.073931836 0.032040242 0.016164143
0.062026493 -0.03214043 -0.0012354917 -0.031193009 0.033214394 0.017696157 0.031017352 -0.03791658
-0.18949534 0.041417554 0.04668596 -0.017397756 0.045852218 -0.003017905 -0.04386294 0.02406802
0.046361584 -0.12960526 0.0032791558 0.0060688825 0.104982644 0.038837846 -0.04590244 -0.025410032
-0.019279394 0.010408506 0.03412142 -0.064713605 -0.032634605 -0.00816295 -0.016484762 -0.005108941
0.0030437082 0.027493604 -0.07630297 -0.18576938 0.030098788 0.020044904 0.06279615 0.022392789
0.0046571293 -0.010843894 -0.0674988 -0.05350455 -0.18758734 -0.051727887 -0.047422968 -0.025899319
-0.014815191 -0.03376895 0.08957583 -0.038600855 -0.009083832 -0.083433956 0.0035026069 0.04426799
0.004613633 0.04415737 0.008184385 0.009639223 -0.00846669 0.044624582 0.09088744 0.037428737
-0.035403226 -0.011958435 -0.000371808 0.003367528 -0.0036567622 0.017669937 -0.04117973 -0.012132803
0.017327486 0.039920047 0.11863389 0.011166303 0.06789722 0.13568832 0.06169718 0.087236956
-0.1768819 0.019603485 0.011912786 0.033153582 0.028969195 -0.0009707775 0.0046589854 0.041157395
0.023486717 -0.0056899237 -0.056706823 0.024262298 0.034758974 0.025806056 -0.0008022196 0.003586052
0.06074418 -0.0033342054 0.15762974 0.058420293 0.021551358 0.03472011 0.06356669 0.025560431
0.09372763 0.007357442 0.053348966 -0.073769405 -0.03654391 0.012961764 0.004885683 0.002830698
0.032684077 -0.032026302 -0.016164009 -0.026298827 -0.22487327 -0.022998959 0.06312667 -0.017458623
0.035471253 0.00826588 -0.040906508 -0.0024777057 -0.04568825 0.14249101 -0.12816605 -0.013501387
-0.033701234 -0.053486645 -0.033695024 0.030298332 0.008521655 -0.012514068 0.07332718 -0.07572393
0.0056772544 0.017995216 0.02408318 -0.07662331 -0.06786681 -0.0036160836 -0.057028215 0.1424082
-0.10988478 -0.081026606 0.010829093 -0.06425914 -0.08668184 -0.12434293 -0.06375464 -0.027514916
0.02138924 -0.017856354 -0.03406062 -0.080673866 -0.05235795 -0.06972709 -0.019774815 -0.088419445
-0.08429589 0.02063807 -0.043462377 -0.043331407 -0.041145686 -0.03941944 0.032667723 0.024996025
0.075745694 0.110622905 -0.06635089 0.07602761 0.03360893 -0.07599145 -0.0016429496 -0.019120848
-0.032400165 0.0005164488 -0.05872437 0.054265928 -0.09501715 -0.037360445 -0.10602872 -0.08883149
0.0046847467 0.02266471 0.030279258 -0.03930629 0.10199945 0.09478824 0.0063778805 0.046422053
0.00022220355 0.0005957385 -0.03068125 -0.009090917 -0.015070072 -0.020832073 -0.025078949 0.020435812
-0.0047027976 -0.002985962 0.021387171 -0.00038590172 0.061550617 -0.014982648 -0.0021026642 -0.042696565
0.0001527835 0.019137831 0.02332119 0.012571415 0.005483214 0.019033056 -0.10003394 -0.22800043
-0.08400707 0.017236235 0.014680128 0.025869805 -0.057821814 -0.07877401 -0.053510446 -0.0071985526

model.8.bias f4 [64]
00000000: f50a 0e3f 2ce4 093f fc8c ffb6 109a 4d3e
00000010: 95b4 c0bd 0368 203f f79b c43e 1cf3 02be
00000020: 2d36 f73d 53d5 cf3e 6350 073f 1686 803e
00000030: f4a9 313f 4901 eb3e da7a ab3f 7369 cd3e
00000040: 47e3 b83e 5cd4 8a3f 79a5 a83e d43c f93e
00000050: 3c4b 253e a33e 303f f8fa b93e d289 363f
00000060: 63db c63e 43c2 143f 7292 3b3f f896 8ebd
00000070: 3eb0 80be f6a8 bd3e 59d6 01bf 539b ab3f
00000080: 4c70 2a3f 0b07 053c c3cb 183d bc37 c9bd
00000090: 92a0 d53e 0d04 a53d e8d0 763f 11e1 b9bb
000000a0: 3f45 513e 6795 22bf e3f5 aa3e 75b0 e23e
000000b0: 7a33 f43e 301d c83d e25d 28be fb49 a13c
000000c0: e4c5 df3e 8ea8 ca3e bc0b 163f cdc6 383e
000000d0: e2de 593f a57d bc3e 0d32 bd3d 9221 1e3f
000000e0: 32fc ce3e ffef ab3e 0220 ab3e 14e9 b43e
000000f0: b07f 943e 0de7 303f a69e e53e 4852 0c3f
0.5548547 0.5386379 -7.616005e-06 0.20078301 -0.09409443 0.6265871 0.38400242 -0.12788051
0.1207088 0.4059244 0.52857035 0.251023 0.6939995 0.45899418 1.3396866 0.40119514
0.361109 1.0846057 0.32938746 0.4867922 0.16141981 0.68845576 0.36324286 0.7130405
0.38839254 0.5810892 0.7327033 -0.06962389 -0.25134462 0.3704297 -0.50717694 1.3406776
0.665776 0.008119355 0.037303697 -0.098250836 0.41724068 0.08057413 0.96412516 -0.005672582
0.20436572 -0.6350922 0.33390722 0.4427525 0.47695524 0.09771192 -0.16442063 0.019688597
0.43705666 0.39581722 0.58611655 0.18044586 0.8510572 0.3681461 0.09238062 0.61769974
0.40426785 0.3358154 0.33422858 0.35334074 0.29003668 0.69102556 0.44847602 0.5481305

model.10.weight f4 [64, 64, 3, 3]
00000000: 489a 1139 20e2 2a3a c00e cb38 ddd5 903b
00000010: 76f7 793c 5af3 903b 6283 85ba f686 b4ba
00000020: 6649 ddba c0bb 713b 91ce 05bc 5ae7 acbb
00000030: fabf e4bb 8701 20bc fa2a 08bc 53fd 7fbb
00000040: 4593 9fbb 04ca 523b 294e ec3b df70 34bc
00000050: c6cf 0abc 37e2 7cbb a42e 47bb 64e0 cfbb
00000060: fc49 0b3c a2b1 173c cf20 05bb d442 063c
00000070: b813 003b a362 4abb 80cf 1e3c 2842 a73c
00000080: c006 753c 0fa1 00bb 72f9 a33b be66 1e3c
00000090: b2a0 dc3b fb3d 59bb 0cd4 80bb 9ae9 7fbb
000000a0: b1a2 16bd 4c48 83ba 1ac2 7d3a 9415 eebb
000000b0: eed7 0c3c 9000 b9bb ca62 33ba e3b1 05bb
000000c0: e0e6 01bc 5d10 e83b 532c f6ba 6c88 a1bb
000000d0: 995a f0bb e970 f3b7 3045 093c ec98 a1bb
000000e0: 96fb 1e3c 6baf 693c 976a c2ba f009 acbb
000000f0: bb30 7e3b 0e8a 50bb 895a 85bb cfed 0a3c
00000100: 7208 65b9 644e d2bb c16e efb9 3ad2 8abc
00000110: 16d7 9abb 6d40 d83b 5a5c 8ebb 40d5 1a3b
00000120: 5ec4 cf3a 8aac 6cba 6b5e 9f3b c739 023c
00000130: 5ae9 4cbc d969 be3c d414 b33b 0e81 283a
00000140: 9e64 323c 9ec8 f13b 044a d138 ced1 34bb
00000150: 4927 ebbb d6d9 01bb 3fe5 08bb 6707 bdbb
00000160: 66d1 a4bb cb3e c73b cf33 0c3c fbd0 c6ba
00000170: 8ac6 c9b9 5df4 2f3c adc0 913b 9409 7a3a
00000180: 7701 9aba d868 363a f97c c2bb b203 9839
00000190: 6eba d5bb 5030 a4bb e62e 853c c604 603b
000001a0: 1841 dabb af24 933c 53cd 383c e97f ccbb
000001b0: be33 013b a37c ffba ea96 8b3b 4c5b 31bb
000001c0: da4d 37bb d9df 09bb c6b3 dd3a 907b a33a
000001d0: 4dde 20bb f830 26bb e61f a03a 9dc5 ed3b
000001e0: ecf6 303b dca9 57bc ad38 243c c096 cb3b
000001f0: 541a a9bb 0f5c 86bb a283 aa3b 42d8 f4ba
00000200: a009 cabb b178 a03c 9012 3f3c 2a71 95bc
00000210: 6fe2 2a3c 3111 f43a afcd 95bb 1878 95bb
00000220: ff11 f1b9 1090 b83b ed12 c2ba e462 28bc
00000230: 6a33 073c f1d0 083c d58a 933b 1ba1 5b3b
00000240: 83ab b2ba 5957 fd3b 965d 8b3b 14c9 99bb
00000250: 31e8 d13b 9e5f 203c 0489 c1b9 885d 4dbb
00000260: e968 1f3a b5e2 2a3b 1357 083b fa2d fe3b
00000270: 4ca4 793c e454 bf3b 4135 103c a916 243b
00000280: ddba 9d3b 3b4f 083c 6764 4539 c8a9 783b
00000290: df0d 883b 140e 6abb 19f0 633b 577a 6a3a
000002a0: 87f7 2cbc 8527 66bb dda0 4e3b 6680 86ba
000002b0: 2805 c0bb e4a7 a8ba 5e23 ddbb 91be 09bc
000002c0: d889 a8b8 1147 433a beaf eb3b b907 063c
000002d0: 710d 7cbb f11a c6ba eb4d b63a 6f9a fbba
000002e0: 3259 b23b a754 c9bb bc7f 45bb 09a5 0e3b
000002f0: 0c9f d2bb de46 24bc 2007 01bc 0fec 00bc
00000300: 6ca6 60bc c207 d1bc 5a79 19bd b5ff 76bb
00000310: 6284 1ebc 2378 6dbc 7151 783b b3a7 e839
00000320: 1767 39bb 5ca5 d4bb 969b b5bc 802b b0bb
00000330: b610 25bb f0eb 0ebb aca9 a4bb b06b b5bb
00000340: e9c2 9cbb c32f af39 06cf 91bc 98b6 d8b9
00000350: fcfb a93a ea21 a8b9 cf78 c1ba 5a3f 99bb
00000360: 1e53 a8bb cd0e 503a 5dde 0b3c c5e7 4e3b
00000370: 2c93 20bc 79f3 933b 88cc 4d3a 3986 07bc
00000380: 9465 febb b982 efbb 0dd9 8f3a 798b f73b
00000390: 0966 d1bb 70e0 31bc 81ca 95bb a261 39bb
000003a0: 74f6 35bc f432 f2bb 6b15 6fbb 4e27 7f3b
000003b0: 19c4 143c 58c9 b3bb 0dac e239 11ae 463c
000003c0: 43d1 67b9 bab7 8f3a deaf b73b a8eb 4cbb
000003d0: c94a b23b dca0 8ebb 1115 803b ee0e 2e3b
000003e0: 4893 a4bc 51f8 a339 a1e2 ff3a 8f81 49b9
000003f0: 5e4b 843a e721 8d3a f698 2a3b 23ad 6e3b
0.00013885752 0.00065186806 9.682542e-05 0.0044200257 0.015256753 0.004423541 -0.001018625 -0.0013773132
-0.0016882836 0.003688559 -0.008166925 -0.0052766027 -0.006980893 -0.009765989 -0.008311028 -0.0039060905
-0.004869851 0.0032163868 0.007211466 -0.011013239 -0.008472389 -0.0038586983 -0.003039279 -0.006343888
0.008501526 0.00925866 -0.0020313745 0.008194644 0.0019543003 -0.0030881546 0.009693027 0.020417288
0.014955223 -0.0019627248 0.0050041014 0.00966805 0.0067330236 -0.0033148516 -0.003931528 -0.003904915
-0.03677625 -0.0010016053 0.00096801075 -0.007265756 0.0085964035 -0.005645819 -0.0006843029 -0.0020400218
-0.00792858 0.007082029 -0.001878152 -0.004929593 -0.007335019 -2.9020435e-05 0.008378312 -0.00493156
0.009703537 0.014263014 -0.0014832792 -0.005250208 0.003878637 -0.0031820568 -0.0040696305 0.00847955
-0.00021842288 -0.0064180363 -0.0004566815 -0.016945947 -0.0047253473 0.006599477 -0.0043445053 0.0023625642
0.0015851369 -0.0009028396 0.0048635504 0.0079483455 -0.012506807 0.023243831 0.0054651294 0.0006427922
0.010888247 0.0073786518 9.979683e-05 -0.0027590874 -0.007176314 -0.0019813678 -0.0020888594 -0.0057687047
-0.005029845 0.0060804836 0.008557274 -0.0015168482 -0.0003848563 0.010739413 0.0044480176 0.00095381704
-0.0011749704 0.0006958372 -0.005935308 0.00028994452 -0.0065224683 -0.005010642 0.016257714 0.0034182533
-0.006660592 0.017961828 0.011279422 -0.006240834 0.0019714679 -0.0019492101 0.0042599337 -0.0027062474
-0.0027969987 -0.0021037965 0.0016914539 0.0012472738 -0.0024546564 -0.0025358777 0.0012216538 0.0072562234
0.0027002646 -0.013163056 0.010023278 0.006213039 -0.0051606093 -0.0041003297 0.00520368 -0.0018680173
-0.006165698 0.0195888 0.0116621405 -0.018242437 0.010429963 0.0018620846 -0.0045716385 -0.0045614354
-0.0004598051 0.005632408 -0.0014806666 -0.010277484 0.008252004 0.008350597 0.004502634 0.0033512774
-0.0013631437 0.00773136 0.0042530997 -0.00469316 0.006405853 0.009788422 -0.00036913913 -0.0031336267
0.00060810015 0.002607507 0.0020803853 0.0077569457 0.015236925 0.005838977 0.008801759 0.002503792
0.0048135356 0.008319671 0.00018824787 0.0037942994 0.004152044 -0.0035713958 0.003478056 0.00089446217
-0.010557062 -0.003511877 0.0031528987 -0.0010261654 -0.0058599897 -0.0012867418 -0.006748601 -0.008407251
-8.03654e-05 0.00074492494 0.007192581 0.008180552 -0.003846016 -0.001511423 0.0013908719 -0.0019195805
0.005442762 -0.0061441245 -0.003013595 0.002176585 -0.0064276513 -0.010026662 -0.007875234 -0.007868781
-0.013711553 -0.025516395 -0.037469245 -0.0037689034 -0.009675117 -0.014493975 0.003789034 0.00044375434
-0.0028290206 -0.006489439 -0.022168916 -0.0053762794 -0.0025186962 -0.002180811 -0.0050251093 -0.005536519
-0.0047839773 0.00033414186 -0.017798912 -0.00041334773 0.0012968774 -0.00032068725 -0.0014760735 -0.0046767415
-0.0051368615 0.0007936776 0.008536902 0.003157125 -0.0098007135 0.004515108 0.0007850607 -0.008271747
-0.007763574 -0.0073092845 0.001097472 0.0075544682 -0.0063903374 -0.010856733 -0.0045712595 -0.0028286953
-0.011106122 -0.007391328 -0.0036481272 0.003893334 0.009079956 -0.0054866485 0.00043234267 0.012126462
-0.00022107833 0.0010964789 0.005605682 -0.0031268392 0.005441044 -0.004352672 0.0039087613 0.0026559192
-0.02008976 0.00031274793 0.0019522497 -0.00019217118 0.0010093262 0.001076755 0.0026031113 0.0036419115

model.10.bias f4 [64]
00000000: 3a6c 553d 4798 043e 0a26 233e ef88 273e
00000010: 908a 293d ff1f bdbc 762a 28be 3786 893e
00000020: 9dcc 803d 0e03 853d 02a0 d53d 93bf c03c
00000030: a938 d13d ebd4 d8bc c234 88bd 92ee f33c
00000040: 0a59 853d 687f b33c f2ea 04be f57e 28bc
00000050: 1c21 9d3d 4672 0a3e 0128 d23c 4fbe ad3d
00000060: e28e 53bd f9b1 573d af67 9b3d f13c a63d
00000070: 0e71 34bb a5b0 363d 83f7 2b3e 8d2a 1abe
00000080: d58c e93c 8c6b 3dbe 49f2 1e3e a403 2e3d
00000090: 663f ccbd 9d35 253e 80dc 2e3c 7db1 4e3d
000000a0: cbd3 863d f3a0 16be 2207 183d 2253 ed3c
000000b0: f56c 71be b917 913d 937a d93d b572 363d
000000c0: 577e c13c 1711 913d 8297 9ebc 0af9 363d
000000d0: e189 db3d 586e 683e 3e6b c53d 3d57 dcbd
000000e0: 4d94 7e3e d438 c2bb 2aa1 c63b a154 ba3d
000000f0: cb55 9cbc bf45 543d 7f4f 153e f41c 693c
0.052105166 0.12948714 0.1593248 0.1636083 0.04139191 -0.023086546 -0.16422448 0.2686021
0.06289027 0.06494723 0.1043091 0.02352885 0.10215885 -0.026468715 -0.06650688 0.029776845
0.065111235 0.021911338 -0.1298025 -0.010284175 0.07672331 0.13520154 0.025653841 0.08483564
-0.051649936 0.052659962 0.075881355 0.081170924 -0.0027533206 0.044602055 0.16793637 -0.15055294
0.028509537 -0.18498057 0.15522112 0.04248394 -0.0997303 0.16133733 0.0106726885 0.050462235
0.06583365 -0.14709835 0.037116177 0.028970305 -0.2357672 0.07084603 0.10619082 0.044542987
0.023619814 0.07083338 -0.019359354 0.044671096 0.10719658 0.22698343 0.096395954 -0.10758827
0.2486126 -0.0059271846 0.0060616927 0.09098173 -0.019083878 0.051824328 0.14581107 0.014228094
