BSAT Back-End/AI-onnx/IRCNN_Mx1.onnx (onnx, 755305 bytes, 14 tensors)

model.0.weight f4 [64, 3, 3, 3]
0.07524184 0.06203828 0.07519391 0.050985385 0.16474625 0.11785098 -0.20616215 -0.24478562
-0.05814765 -0.038652092 -0.08358563 -0.042122126 -0.062585786 -0.15187597 -0.15272984 0.18934467
0.19808857 0.07305623 -0.010836022 -0.010714913 -0.032011602 0.0063323574 -0.05721234 -0.015961908
0.02966764 0.08518667 0.0390297 -0.027370403 -0.40846333 -0.056768425 -0.40806213 -1.1852587
-0.40799773 -0.04075889 -0.4381106 -0.034099996 0.1287956 -0.06256854 0.12938577 -0.064109385
-0.46907958 -0.06444752 0.13871622 -0.07469766 0.13091058 0.068671055 0.006621897 0.07294183
-0.015157283 -0.2547783 -0.027340814 0.07325625 0.0026448756 0.07409589 -0.030272068 -0.21812005
0.26629868 0.24756677 -0.058545206 -0.19833341 -0.23168065 0.25726172 -0.06017757 -0.031157067
-0.23730741 0.26323044 0.27644724 -0.053566307 -0.21802567 -0.20389782 0.28317967 -0.060927093
-0.030605366 -0.21803491 0.22025771 0.24616899 -0.059966635 -0.20278737 -0.18736665 0.25098354
-0.0559536 -0.22205777 0.05961908 0.011240116 -0.002634002 -0.018970631 0.041258987 0.01193189
0.20501868 -0.04714698 0.00317135 0.2886449 0.022144647 0.06294267 -0.17301117 -0.12260439
-0.012384619 0.033393677 -0.18809523 -0.14385374 -0.025191505 -0.11075503 0.21506576 -0.20958222
0.31006658 -0.06910896 0.05867091 -0.029750763 0.08248311 0.012778291 0.0076814536 -0.046620503
-0.020198941 0.08821971 -0.05899619 -0.07458806 0.044158183 -0.019510435 0.08419051 -0.063942365
-0.14587237 0.31476676 0.02787978 -0.13298984 0.02202195 -0.030042633 0.029664569 -0.21694522
-0.110358976 0.006783326 0.18898359 -0.07778307 0.12301616 -0.077403195 0.053226568 -0.09344829
-0.20833942 -0.08641476 -0.15678272 -0.16030191 -0.18205509 -0.07056722 -0.19921216 -0.059308365
-0.069639966 -0.1797603 -0.035446104 -0.1275583 -0.13123122 -0.14268841 -0.03212576 -0.18396406
-0.051546738 -0.080596864 -0.16575 -0.08291245 -0.12034161 -0.08534905 -0.14936602 -0.06483442
-0.17698273 -0.079359345 0.089613765 0.025013879 -0.06088827 0.13721813 -0.25236765 -0.09934152
0.048653018 0.009462665 -0.114206314 -0.21279764 -0.0108987335 0.0037615532 -0.24265294 0.3111963
0.010181138 -0.10801437 0.11603742 0.018024908 -0.23127496 -0.008739519 -0.05245248 -0.09487613
0.28350568 0.10849968 -0.006986661 0.28337595 0.03383759 -0.13074718 0.017149415 0.008779881
-0.13757768 -0.04701604 0.11049004 -0.06945249 0.14805177 0.15189335 0.031828698 -0.061642196
-0.053998064 0.10713448 0.17134424 -0.06950705 0.07633112 -0.076793216 -0.034675132 -0.11498647
0.025855295 0.010949014 -0.06914521 0.62103355 -0.08220554 -0.11853707 -0.23903957 -0.18906759
0.0048250104 -0.39139634 -0.44915655 0.39895517 0.021581907 -0.35430577 0.40482703 0.36785045
-0.005132173 -0.0002953891 -0.22341585 -0.20797484 0.23184781 0.025140371 -0.21391256 0.16748814
0.22277063 -0.018484868 0.02650124 0.037156824 0.15026888 -0.030362552 -0.0045083715 0.020147968
-0.17083704 -0.05375647 -0.043126754 0.037120357 0.066313624 0.014047952 -0.08068949 0.50999403
0.0029448222 -0.18167523 -0.12795348 -0.0367502 -0.011316395 0.040268272 0.06284614 -0.024536537
00000000: 6518 9a3d da1b 7e3d 44ff 993d 0dd6 503d
00000010: 3eb3 283e db5b f13d 2c1c 53be 15a9 7abe
00000020: 3b2c 6ebd a851 1ebd f12e abbd 4088 2cbd
00000030: fa2c 80bd 6085 1bbe 3665 1cbe 92e3 413e
00000040: bbd7 4a3e 819e 953d 9289 31bc 9a8d 2fbc
00000050: 991e 03bd aa7f cf3b 7d57 6abd 8cc2 82bc
00000060: 8d09 f33c 5976 ae3d 9bdd 1f3d e537 e0bc
00000070: 1b22 d1be 0286 68bd 85ed d0be 8fb6 97bf
00000080: 14e5 d0be cbf2 26bd 0850 e0be 70ac 0bbd
00000090: fee2 033e ef23 80bd b47d 043e c84b 83bd
000000a0: 332b f0be 10fd 83bd a00b 0e3e 16fb 98bd
000000b0: 6c0d 063e 69a3 8c3d 80fc d83b 8762 953d
000000c0: 4156 78bc 4d72 82be d8f9 dfbc 5f07 963d
000000d0: a655 2d3b 96bf 973d 21fd f7bc dd5a 5fbe
000000e0: 4d58 883e 2582 7d3e 19cd 6fbd ea17 4bbe
000000f0: b13d 6dbe cfb7 833e c17c 76bd 1b3d ffbc
00000100: b700 73be 24c6 863e 7e8a 8d3e 5868 5bbd
00000110: 1f42 5fbe 97ca 50be edfc 903e b08e 79bd
00000120: 1bb8 fabc 8b44 5fbe 3d8b 613e b913 7c3e
00000130: 939f 75bd 7ea7 4fbe 0bdd 3fbe ea80 803e
00000140: 9a2f 65bd 1d63 63be 2333 743d 7728 383c
00000150: 389f 2cbb 4c68 9bbc 2fff 283d f97d 433c
00000160: 6bf0 513e 311d 41bd 6dd6 4f3b 44c9 933e
00000170: b168 b53c 16e8 803d d729 31be 0318 fbbd
00000180: dbe8 4abc cfc7 083d 099c 40be 654e 13be
00000190: 6a5e cebc 88d3 e2bd 333a 5c3e b99c 56be
000001a0: 0cc1 9e3e 0089 8dbd e850 703d dfb7 f3bc
000001b0: e8ec a83d 095c 513c b4b4 fb3b 24f5 3ebd
000001c0: 4078 a5bc 89ac b43d fda5 71bd a0c1 98bd
000001d0: 36df 343d 59d4 9fbc 136c ac3d 37f4 82bd
000001e0: 915f 15be 1c29 a13e 2364 e43c 7d2e 08be
000001f0: 6067 b43c f81b f6bc 1c03 f33c e326 5ebe
00000200: e303 e2bd aa46 de3b ea84 413e bb4c 9fbd
00000210: e6ef fb3d 9185 9ebd 1a04 5a3d d161 bfbd
00000220: ee56 55be 39fa b0bd a68b 20be 2f26 24be
00000230: a66c 3abe 8c85 90bd 46fe 4bbe 54ed 72bd
00000240: 669f 8ebd 1613 38be ef2f 11bd a59e 02be
00000250: 7a61 06be e91c 12be 4d96 03bd 1361 3cbe
00000260: ac22 53bd f80f a5bd 5eba 29be 01ce a9bd
00000270: a975 f6bd 7ccb aebd 68f3 18be e9c7 84bd
00000280: f63a 35be 2787 a2bd 6c87 b73d e8e9 cc3c
00000290: fb65 79bd e982 0c3e 5536 81be 9173 cbbd
000002a0: 6348 473d 4b09 1b3c 00e5 e9bd a0e7 59be
000002b0: 9a90 32bc 6484 763b 037a 78be 1f55 9f3e
000002c0: cace 263c a336 ddbd 07a5 ed3d f9a8 933c
000002d0: 58d3 6cbe 3330 0fbc 69d8 56bd 6b4e c2bd
000002e0: a827 913e 1535 de3d 5cf0 e4bb a716 913e
000002f0: 4999 0a3d 97e2 05be ee7c 8c3c 7dd9 0f3c
00000300: 2ae1 0cbe e493 40bd 9a48 e23d 1b3d 8ebd
00000310: e29a 173e ee89 1b3e cf5e 023d 877c 7cbd
00000320: 132d 5dbd 5269 db3d dd74 2f3e b659 8ebd
00000330: 7e53 9c3d c345 9dbd 8307 0ebd 077e ebbd
00000340: 7cce d33c 7e63 333c 019c 8dbd 0efc 1e3f
00000350: 615b a8bd 90c3 f2bd cac6 74be ef9a 41be
00000360: 1f1b 9e3b 1a65 c8be d9f7 e5be da43 cc3e
00000370: 8acc b03c 9167 b5be 7d45 cf3e e556 bc3e
00000380: ca2b a8bb 74de 9ab9 20c7 64be 5bf7 54be
00000390: 8369 6d3e 2ef3 cd3c e50b 5bbe 0382 2b3e
000003a0: fc1d 643e 946d 97bc 2119 d93c c131 183d
000003b0: 16e0 193e e3ba f8bc f6ba 93bb 5a0d a53c
000003c0: e8ef 2ebe bf2f 5cbd aea5 30bd 840b 183d
000003d0: 70cf 873d 6229 663c 8840 a5bd f88e 023f
000003e0: ebfd 403b 1209 3abe 3d06 03be 6187 16bd
000003f0: 6768 39bc 58f0 243d 7ab5 803d d900 c9bc

model.0.bias f4 [64]
0.12988086 0.16475973 -0.05170689 0.33870926 0.27554044 0.3672545 0.6073257 0.46500626
-0.04544155 0.5847934 0.25865114 -0.20777126 0.6211571 0.13207294 -0.22717825 0.14881837
-0.18497895 0.616076 0.2674118 0.5404881 0.38158447 0.3580238 0.23740673 -0.15799698
0.80291367 0.75067437 -0.2431474 -0.17323926 -0.6541582 0.27920246 0.25596675 -0.29696763
-0.6327191 0.30312985 0.5298427 0.51314646 0.13939291 0.4194144 0.20771849 0.7696665
-0.2806673 0.05261131 0.3266836 0.532185 -0.568861 0.32977068 0.35587028 0.18141717
0.21105072 0.111970425 0.55819565 0.2518559 0.43312043 0.5450793 1.0033357 0.14716026
0.41151336 -0.2222681 0.5157909 -0.68897086 0.57731384 0.38142383 -0.04902882 0.6399863
00000000: 7dff 043e c6b6 283e 9bca 53bd 4d6b ad3e
00000010: a313 8d3e c808 bc3e b279 1b3f 4d15 ee3e
00000020: eb20 3abd 05b5 153f ec6d 843e fdc1 54be
00000030: 2704 1f3f 213e 073e 6aa1 68be d863 183e
00000040: 1f6b 3dbe 28b7 1d3f 33ea 883e 6e5d 0a3f
00000050: 0a5f c33e e54e b73e c01a 733e f6c9 21be
00000060: c08b 4d3f 322c 403f a2fb 78be a265 31be
00000070: e976 27bf a0f3 8e3e 130e 833e 240c 98be
00000080: e1f9 21bf d633 9b3e c5a3 073f 915d 033f
00000090: 04bd 0e3e 7cbd d63e 28b4 543e dd08 453f
000000a0: a0b3 8fbe f57e 573d 1343 a73e 473d 083f
000000b0: e0a0 11bf b4d7 a83e a134 b63e 6cc5 393e
000000c0: ae1d 583e c050 e53d e9e5 0e3f 42f3 803e
000000d0: f6c1 dd3e 518a 0b3f 4e6d 803f 2eb1 163e
000000e0: e1b1 d23e 409a 63be df0a 043f 6560 30bf
000000f0: d7ca 133f fc49 c33e 72d2 48bd 24d6 233f

model.2.weight f4 [64, 64, 3, 3]
0.010749149 -0.019123368 -0.033408828 0.0250904 0.023087883 0.008659166 0.004189769 0.013925518
0.01193535 0.031039784 0.06430146 0.020975452 0.03991568 0.17170899 0.008821424 0.0029084997
0.08891214 0.025915634 0.00047080527 -0.0026288808 -0.01030976 -0.0065201675 0.023399442 -0.024410704
-0.033146176 0.023067465 0.009850589 0.006085056 0.021309536 -0.007778731 -0.0327608 0.056463752
-0.031939268 -0.0038195122 0.05465165 0.0022706396 0.008935599 0.0028569386 -0.013894602 -0.017823845
-0.03130729 -0.054256923 0.0010275756 -0.0063925292 -0.012666083 -0.0030054466 0.0041556363 -0.0018231595
-0.06258895 -0.04512781 -0.029624514 -0.050324667 -0.03589532 -0.060520712 -0.0005228734 0.015633887
0.020861745 0.032200158 -0.24251056 0.07106237 0.009699211 0.019909795 0.013763947 0.003992867
-0.013259474 0.008171743 -0.013071759 -0.15886657 -0.024026642 -0.020006869 -0.04793327 -0.029550068
-0.0050610024 -0.03793911 -0.02166656 -0.0072505916 -0.04875498 -0.028676067 -0.05117456 -0.05434803
-0.006498419 -0.0025323094 -0.038664 -0.009567873 -0.009893565 0.15181388 -0.02950841 -0.005002724
-0.025433311 -0.02019987 -0.0041115494 -0.022330765 0.027558148 0.02206202 0.016988102 0.0019943337
-0.0115355775 -0.033278182 0.010680517 0.0019192179 -0.057796527 -0.024356717 0.04190345 0.06646192
0.02873561 0.012369856 0.025877044 0.016525023 0.00986068 0.042316675 0.016788675 0.03124979
-0.065628074 0.05231951 0.026387753 0.041046347 0.0066520874 0.027025167 -0.004379456 -0.009509033
0.020084217 0.05270109 -0.024530841 -0.014696567 0.023599783 -0.016688589 0.018185716 0.043734424
0.02296335 0.052679334 0.075178586 0.03851196 0.015312372 0.111854166 0.034879707 0.012440351
-0.017357761 0.007576871 0.046102013 0.030371802 0.071426235 -0.009047547 -0.029233076 0.020259567
-0.0076564536 0.022155467 0.015774783 0.004345831 0.039114885 0.0045693666 0.018249067 0.018827463
0.013562459 0.013143134 0.015952993 -0.014182811 0.03842538 0.017120242 0.039706815 0.004273046
0.027964173 -0.0036544038 -0.02071587 -0.035110373 0.0021955986 0.0031130575 0.017881481 -0.007002814
-0.008415875 -0.018256765 -0.004540154 -0.003705615 0.0049778456 0.015880013 -0.018675692 0.21580163
-0.01535828 -0.01007996 -0.024158921 0.0040102946 0.0138268275 0.016180024 0.031805336 -0.0018105775
-0.23379661 0.03143666 0.015459473 0.047983054 0.026964178 -0.0031460223 0.010497278 0.019403499
-0.020268826 0.06258281 0.0019306489 0.00014134766 0.02833911 0.0072462126 -0.0042189304 0.016903222
-0.015598771 -0.012299539 0.011924991 -0.016351102 -0.0034846752 -0.018434925 -0.0199356 -0.003568722
-0.050084557 -0.046890624 -0.020919224 -0.05483127 -0.044587202 0.0096506495 -0.004841005 -0.009219905
-0.0028248653 0.018714454 0.014983955 -0.015273959 0.12453698 0.027036943 -0.03357663 -0.0016461262
-0.0060902047 0.0034383738 -0.06784312 0.00780912 -0.013051059 0.08038972 0.02664749 -0.012326421
-0.060709327 -0.01057566 0.008728231 -0.02953766 0.024067918 -0.0036800771 0.019327817 -0.017664518
0.011205076 -0.00073984725 -0.0072032795 0.00082750333 0.015189315 0.034072354 0.058254812 0.043454632
-0.0064583076 0.04772986 0.05409873 -0.016486606 -0.0032002435 0.016638057 -0.021654243 0.01798541
00000000: 331d 303c 9ca8 9cbc b2d7 08bd 628a cd3c
00000010: cd22 bd3c 2ddf 0d3c 544a 893b db27 643c
00000020: 7c8c 433c 2547 fe3c 7cb0 833d b6d4 ab3c
00000030: a07e 233d 7bd4 2f3e bc87 103c 879c 3e3b
00000040: 9117 b63d 064d d43c 6ad6 f639 4d49 2cbb
00000050: 45ea 28bc 21a7 d5bb 30b0 bf3c f5f8 c7bc
00000060: 49c4 07bd fbf7 bc3c 5d64 213c 2665 c73b
00000070: 5691 ae3c bae4 febb 3030 06bd 8946 673d
00000080: c0d2 02bd c850 7abb 69da 5f3d 03cf 143b
00000090: 9e66 123c 7a3b 3b3b 2fa6 63bc 5003 92bc
000000a0: 133c 00bd 823c 5ebd b7af 863a 6c78 d1bb
000000b0: 6785 4fbc 07f7 44bb 012c 883b 15f7 eeba
000000c0: a32e 80bd f0d7 38bd 1caf f2bc 3d21 4ebd
000000d0: f906 13bd 91e4 77bd 7111 09ba a312 803c
000000e0: 40e6 aa3c 50e4 033d b054 78be 2689 913d
000000f0: 71e9 1e3c de19 a33c 2e82 613c 99d6 823b
00000100: 443e 59bc c6e2 053c ee2a 56bc ebad 22be
00000110: 85d3 c4bc 72e5 a3bc ad55 44bd fc12 f2bc
00000120: c4d6 a5bb 0a66 1bbd 127e b1bc 5f96 edbb
00000130: 4db3 47bd 12ea eabc 6a9c 51bd 0a9c 5ebd
00000140: b1f0 d4bb 1af5 25bb 245e 1ebd 91c2 1cbc
00000150: 9f18 22bc 1975 1b3e 9fbb f1bc e4ed a3bb
00000160: 8559 d0bc 337a a5bc 2dba 86bb 02ef b6bc
00000170: a0c1 e13c 69bb b43c a22a 8b3c 5eb3 023b
00000180: b8ff 3cbc b44e 08bd 56fd 2e3c 448e fb3a
00000190: 0dbc 6cbd bd87 c7bc f4a2 2b3d 301d 883d
000001a0: f166 eb3c f0aa 4a3c 18fc d33c 7c5f 873c
000001b0: b18e 213c 4054 2d3d 6788 893c 8fff ff3c
000001c0: 0368 86bd fc4c 563d 212b d83c 3720 283d
000001d0: c1f9 d93b e263 dd3c 8a81 8fbb c6cb 1bbc
000001e0: a887 a43c 19dd 573d e7f4 c8bc dfc9 70bc
000001f0: 5554 c13c 82b6 88bc 36fa 943c de22 333d
00000200: a31d bc3c 49c6 573d 3bf7 993d b8be 1d3d
00000210: bee0 7a3c cc13 e53d 06de 0e3d 9dd2 4b3c
00000220: dd31 8ebc 6747 f83b 77d5 3c3d 49ce f83c
00000230: eb47 923d 2a3c 14bc 347a efbc 64f7 a53c
00000240: fde2 fabb 627f b53c 1e3a 813c 7967 8e3b
00000250: ee36 203d a0ba 953b 117f 953c 0d3c 9a3c
00000260: 1335 5e3c 4d56 573c daaf 823c 055f 68bc
00000270: ee63 1d3d c03f 8c3c 9da3 223d e804 8c3b
00000280: 1f15 e53c b97e 6fbb 54b4 a9bc e5cf 0fbd
00000290: 08e4 0f3b 7004 4c3b 2f7c 923c dd77 e5bb
000002a0: bde2 09bc 368f 95bc 92c5 94bb e7d9 72bb
000002b0: 321d a33b cd16 823c c4fd 98bc 1afb 5c3e
000002c0: 4ca1 7bbc 6b26 25bc eee8 c5bc ca68 833b
000002d0: eb89 623c f88b 843c 5046 023d e650 edba
000002e0: 6168 6fbe bac3 003d bb49 7d3c e189 443d
000002f0: fbe3 dc3c 7f2d 4ebb c6fc 2b3c 16f4 9e3c
00000300: cf0a a6bc 6b2b 803d d40d fd3a b936 1439
00000310: 6c27 e83c a371 ed3b f43e 8abb a078 8a3c
00000320: fd91 7fbc 0184 49bc 0a61 433c bff2 85bc
00000330: 265f 64bb d704 97bc fc4f a3bc 38e1 69bb
00000340: 7725 4dbd 6210 40bd cb5e abbc c196 60bd
00000350: 12a1 36bd c21d 1e3c 4ba1 9ebb 160f 17bc
00000360: 6021 39bb 0e4f 993c 437f 753c a13f 7abc
00000370: 3f0d ff3d 947c dd3c a687 09bd d4c2 d7ba
00000380: 5790 c7bb 5756 613b 55f1 8abd a6e3 ff3b
00000390: 1cd4 55bc 5ea3 a43d d64b da3c c2f4 49bc
000003a0: 58aa 78bd 8845 2dbc db00 0f3c f6f8 f1bc
000003b0: 152a c53c 732d 71bb 5f55 9e3c 2eb5 90bc
000003c0: 7f95 373c 4ff2 41ba 7d09 ecbb cfec 583a
000003d0: 9bdc 783c 748f 0b3d 999c 6e3d 7cfd 313d
000003e0: 36a0 d3bb 6380 433d a196 5d3d eb0e 87bc
000003f0: 2dbb 51bb 894c 883c 3d64 b1bc 2356 933c

model.2.bias f4 [64]
0.70717275 0.812657 1.2751046 0.20481162 -0.83950096 0.31727105 0.74710155 0.28147948
0.50247544 0.49139017 0.36037892 0.057824336 0.29634815 0.49727523 -1.2999965 0.7772412
1.3599851 0.36077422 -0.10238913 -1.3093461 0.7003137 0.36103255 -0.070233576 0.8629184
0.087923035 -0.11966281 0.1510171 -0.3116357 0.39873537 1.4843216 0.75822353 0.17215817
-0.058694154 0.9821501 0.18000259 1.1811277 -0.03788204 0.3283227 -0.186395 -0.15774259
0.30848584 0.4648969 0.41289836 0.97206473 0.4643588 2.1794975 0.056542948 -0.49235326
0.09776386 0.21699584 0.07175418 -0.14035143 0.58488506 0.12412955 0.99860996 0.39478388
0.98980725 0.15982586 0.16936213 -0.5680479 0.70769155 0.99551666 0.21539468 0.39675632
00000000: 4609 353f 4a0a 503f a136 a33f 23ba 513e
00000010: 89e9 56bf 5a71 a23e 0c42 3f3f 141e 903e
00000020: 3ba2 003f 7e97 fb3e 9683 b83e 36d9 6c3d
00000030: f2ba 973e dc9a fe3e 4966 a6bf 47f9 463f
00000040: fe13 ae3f 66b7 b83e 64b1 d1bd a798 a7bf
00000050: c247 333f 42d9 b83e 9fd6 8fbd 38e8 5c3f
00000060: fe10 b43d c611 f5bd 3aa4 1a3e b78e 9fbe
00000070: 0b27 cc3e 40fe bd3f f01a 423f 3b4a 303e
00000080: 4869 70bd 306e 7b3f 9952 383e 312f 973f
00000090: 332a 1bbd ea19 a83e 55de 3ebe 4687 21be
000000a0: dbf1 9d3e f706 ee3e 6a67 d33e 3cd9 783f
000000b0: 70c0 ed3e e37c 0b40 9499 673d ba15 fcbe
000000c0: 6b38 c83d 2834 5e3e dbf3 923d 49b8 0fbe
000000d0: 07bb 153f a237 fe3d e7a4 7f3f 1d21 ca3e
000000e0: 0264 7d3f 64a9 233e 446d 2d3e 966b 11bf
000000f0: 462b 353f 2eda 7e3f 6c90 5c3e a523 cb3e

model.4.weight f4 [64, 64, 3, 3]
-0.015280113 0.04861862 -0.0721201 0.014985196 -0.0071520177 0.00163132 -0.027376844 0.09365541
0.024674725 0.012584358 -0.006937009 0.01684068 0.05105994 -0.19109055 0.05606505 0.05633974
0.095475286 0.039063986 -0.078264594 -0.00360436 -0.05222378 -0.009244408 0.22076587 0.0013101945
0.04142926 -0.07630716 0.032640066 0.004700314 -0.008655418 0.013269438 0.108049646 0.09812168
0.0818003 0.074259095 0.005155867 0.027652195 -0.033656705 -0.03996939 0.023378486 0.014649706
0.03855851 0.017304448 0.016682694 -0.13216276 -0.010717877 -0.05045837 0.030740773 -0.047921315
0.060586493 0.17327686 0.12717661 0.015867662 -0.109852344 -0.001796951 -0.03957694 -0.04183334
-0.027204877 -0.03710458 0.42614514 -0.08315247 -0.055338163 0.091283455 -0.029646724 -0.0044320966
-0.006962615 0.0054287864 -0.010951755 0.07965619 0.047848895 0.029705634 0.04325732 -0.0005673442
0.04151155 0.02765726 0.0035437196 0.016763398 -0.2043685 -0.018116131 -7.011013e-05 -0.028629808
0.01910697 -0.016214337 0.046792854 -0.04766096 -0.06188671 0.27141652 -0.03935416 -0.005585552
-0.12753996 0.030879715 -0.044822168 -0.11042942 0.026410554 -0.06032075 -0.04396012 -0.057911392
-0.062237192 0.07453769 -0.009141012 0.02121796 0.038607545 -0.011709198 0.0480826 -0.03046528
0.056088712 0.047027815 0.010991476 0.013852459 -0.035492994 0.025903724 -0.024550494 -0.055969257
0.19590913 8.259427e-05 0.008109518 -0.21724929 -0.04458778 0.0117937345 -0.05350071 0.00067308743
0.14137247 -0.104311824 0.13298213 -0.03263657 0.11346586 -0.02669926 0.0109812785 -0.0031900392
0.004682838 -0.007594402 0.04172505 0.034862854 0.020950178 -0.012838293 -0.02248377 -0.0049652914
0.0069159265 -0.0029981737 -0.055523563 -0.17913465 -0.016052814 -0.037515707 -0.010394701 -0.017539022
0.022645308 -0.1073963 0.033194073 0.057169907 -0.23286012 0.03533237 0.029845035 0.18254283
0.03650042 0.013426504 0.016334616 -0.020982958 -0.06191855 0.15055549 -0.15197143 0.030709382
-0.27019602 0.041649677 -0.01276534 0.02077917 0.007517022 -0.032817505 -0.36765972 0.03230144
0.07416298 0.18280785 0.035897356 0.01227601 0.015555491 -0.016516874 0.093019694 -0.09666607
-0.044696253 -0.074106164 0.09517643 0.026464464 -0.027259015 0.023302535 0.029761558 0.005223414
-0.07528252 0.017997088 0.012730596 0.08220593 0.027987005 0.01627415 -0.028805228 -0.017787741
0.051796827 0.33606854 -0.05698054 -0.03899286 -0.07867345 0.04767935 0.005537715 -0.038012758
0.09560003 -0.07000224 -0.26426113 0.032665025 0.10594083 0.13891602 0.033669434 -0.0020507788
0.039518848 -0.0023902925 -0.06575466 0.14128146 -0.039431542 0.1093088 -0.053385206 0.055550154
-0.07594125 0.13795827 0.017650323 -0.12914322 0.02087913 0.11587202 0.21587718 -0.09070452
-0.038650483 0.12911199 0.09073388 0.12530544 0.038952418 -0.50922674 0.07878175 -0.12125803
0.41324937 -0.11842518 0.031127403 0.10837924 0.027888559 -0.08432756 0.081412114 -0.025536373
0.07628506 0.11365849 0.009826615 0.006130026 -0.0045743356 0.014308536 -0.022452388 -0.024072854
-0.011525682 -0.01431823 -0.053000532 -0.0012417028 -0.076389216 0.015942527 -0.03401059 -0.034113556
00000000: 7059 7abc 5124 473d b4b3 93bd 7884 753c
00000010: 795b eabb 04d2 d53a 6745 e0bc 68ce bf3d
00000020: a622 ca3c a02e 4e3c d94f e3bb 77f5 893c
00000030: 3a24 513d 3ead 43be 77a4 653d 80c4 663d
00000040: 8c88 c33d 8f01 203d 3049 a0bd 2037 6cbb
00000050: 9ae8 55bd dc75 17bc 7310 623e d5ba ab3a
00000060: bab1 293d ee46 9cbd 97b1 053d 1705 9a3b
00000070: 74cf 0dbc 0f68 593c 2249 dd3d 05f4 c83d
00000080: ea86 a73d 2715 983d 8cf2 a83b db86 e23c
00000090: 9ddb 09bd f1b6 23bd 3d84 bf3c 5205 703c
000000a0: 87ef 1d3d 0fc2 8d3c 25aa 883c ad55 07be
000000b0: 099a 2fbc 70ad 4ebd 13d4 fb3c 2449 44bd
000000c0: 8b29 783d 7d6f 313e 963a 023e e6fc 813c
000000d0: 44fa e0bd ac87 ebba 6e1b 22bd 7059 2bbd
000000e0: c3dc debc f9fa 17bd b22f da3e d84b aabd
000000f0: 45aa 62bd d2f2 ba3d b0dd f2bc 1f3b 91bb
00000100: a626 e4bb f6e3 b13b fd6e 33bc c922 a33d
00000110: 34fd 433d 3b59 f33c 962e 313d d3b9 14ba
00000120: 0408 2a3d 7a91 e23c c03d 683b 6553 893c
00000130: fa45 51be 4868 94bc 1708 93b8 0f89 eabc
00000140: 3886 9c3c eed3 84bc dda9 3f3d 2438 43bd
00000150: eb7c 7dbd 1bf7 8a3e d431 21bd 0207 b7bb
00000160: d699 02be 75f7 fc3c 7397 37bd d228 e2bd
00000170: f25a d83c e412 77bd 870f 34bd 7f34 6dbd
00000180: 6dec 7ebd 37a7 983d 2fc4 15bc 4ad1 ad3c
00000190: f222 1e3d f0d7 3fbc 43f2 443d 5392 f9bc
000001a0: 47bd 653d 3da0 403d 9715 343c 6df5 623c
000001b0: 1a61 11bd 0c34 d43c 1e1e c9bc 0540 65bd
000001c0: 679c 483e 7636 ad38 c9dd 043c 9976 5ebe
000001d0: ada1 36bd 823a 413c 8f23 5bbd 2272 303a
000001e0: f2c3 103e 70a1 d5bd 782c 083e edad 05bd
000001f0: ca60 e83d 68b8 dabc d2ea 333c fa0f 51bb
00000200: 7e72 993b 76da f8bb e3e7 2a3d 5acc 0e3d
00000210: b59f ab3c b457 52bc e22f b8bc e2b3 a2bb
00000220: ff9e e23b 027d 44bb ad6c 63bd 136f 37be
00000230: 3181 83bc 12aa 19bd 894e 2abc ffad 8fbc
00000240: a782 b93c 97f2 dbbd 82f6 073d fe2a 6a3d
00000250: e272 6ebe adb8 103d 937d f43c 82ec 3a3e
00000260: 7781 153d d7fa 5b3c 2cd0 853c 74e4 abbc
00000270: 4e9e 7dbd 382b 1a3e 669e 1bbe 3e92 fb3c
00000280: 2257 8abe da98 2a3d b725 51bc 1439 aa3c
00000290: 5a51 f63b a66b 06bd e53d bcbe 844e 043d
000002a0: c3e2 973d fb31 3b3e 1b09 133d 5121 493c
000002b0: 75dc 7e3c 654e 87bc 1c81 be3d dcf8 c5bd
000002c0: 6b13 37bd f9c4 97bd dceb c23d 01cc d83c
000002d0: 4c4e dfbc f5e4 be3c 83ce f33c 2c29 ab3b
000002e0: b92d 9abd a16e 933c fd93 503c 955b a83d
000002f0: 0145 e53c 5e51 853c f1f8 ebbc 99b7 91bc
00000300: e928 543d 2d11 ac3e 6d64 69bd fab6 1fbd
00000310: 8c1f a1bd 6c4b 433d b875 b53b 44b3 1bbd
00000320: f3c9 c33d 565d 8fbd 3c4d 87be c3cb 053d
00000330: 82f7 d83d 0040 0e3e f6e8 093d 5c66 06bb
00000340: 84de 213d 74a6 1cbb 61aa 86bd 16ac 103e
00000350: f882 21bd 4bdd df3d 72aa 5abd 8f88 633d
00000360: 1687 9bbd ef44 0d3e 6997 903c 1f3e 04be
00000370: b60a ab3c 4f4e ed3d e80e 5d3e 4bc3 b9bd
00000380: f84f 1ebd ef35 043e afd2 b93d 1250 003e
00000390: 928c 1f3d af5c 02bf 5358 a13d 2156 f8bd
000003a0: 6c95 d33e e788 f2bd e5fe fe3c eff5 dd3d
000003b0: 8c76 e43c eeb3 acbd 65bb a63d a831 d1bc
000003c0: 573b 9c3d c8c5 e83d d0ff 203c 63de c83b
000003d0: 4fe4 95bb 5a6e 6a3c 12ee b7bc 6f34 c5bc
000003e0: 37d6 3cbc 0297 6abc 1617 59bd a2c0 a2ba
000003f0: f371 9cbd e799 823c b04e 0bbd a8ba 0bbd

model.4.bias f4 [64]
-0.104176946 0.11172309 0.1788593 0.26169464 0.4387402 0.45643038 0.6212864 0.35235173
-0.6842243 0.028604245 0.48731497 0.7912903 -0.05106567 0.32788813 0.24287075 0.2358192
0.74418837 0.1047819 0.38509247 -0.11386381 0.31999823 0.35387987 0.22056949 0.70773727
0.5552198 0.39977175 0.49092737 0.37502742 0.7756702 0.57126737 0.19318783 -0.05461812
0.4460072 0.17709228 0.2887839 0.05347272 0.5783318 0.6307683 -0.34462377 0.6155383
0.6617577 0.0024465427 0.83488894 0.4100007 -0.1042604 0.092228316 0.5495743 0.3434203
-0.1388154 0.20664601 0.064593926 0.85982615 0.44819918 0.46682036 0.58000624 0.54301125
0.48213172 0.32582054 0.42691034 -0.10811148 0.09504276 0.26744387 0.021948135 0.51584905
00000000: b95a d5bd 13cf e43d e426 373e d7fc 853e
00000010: 8ea2 e03e 3eb1 e93e a00c 1f3f 7267 b43e
00000020: 5329 2fbf 7353 ea3c 5981 f93e 0092 4a3f
00000030: 3c2a 51bd f4e0 a73e 1cb3 783e 977a 713e
00000040: 2183 3e3f e597 d63d d72a c53e 6e31 e9bd
00000050: cfd6 a33e be2f b53e f8dc 613e 452e 353f
00000060: e322 0e3f e2ae cc3e d55a fb3e 9803 c03e
00000070: 5292 463f 943e 123f 08d3 453e 40b7 5fbd
00000080: 0e5b e43e ae57 353e 7cdb 933e 3606 5b3d
00000090: 8e0d 143f 087a 213f 8772 b0be eb93 1d3f
000000a0: f468 293f 2d56 203b 48bb 553f 9deb d13e
000000b0: 7a86 d5bd 33e2 bc3d e7b0 0c3f c9d4 af3e
000000c0: a025 0ebe 039b 533e d249 843d 911d 5c3f
000000d0: 5d7a e53e 1403 ef3e 4a7b 143f c902 0b3f
000000e0: f8d9 f63e f3d1 a63e fe93 da3e 8d69 ddbd
000000f0: c7a5 c23d 67ee 883e 93cc b33c af0e 043f

model.6.weight f4 [64, 64, 3, 3]
-0.21972583 0.041819405 0.045777258 0.06315623 -0.24752747 -0.058420695 0.019065186 -0.05224462
-0.045315303 -0.016875964 -0.028961295 -0.030602721 0.035936665 -0.16040978 -0.026629562 -0.02618108
-0.032420456 -0.02550504 0.047351267 -0.032283723 -0.0074021374 -0.016407518 -0.03303304 -0.017350975
0.017275356 -0.0144279245 -0.05259152 -0.009464095 -0.022268739 -0.005954666 -0.1276123 0.037322804
0.024869427 -0.034081705 -0.00069584267 -0.005162553 0.037309494 0.0022748858 0.029096738 -0.20486404
-0.13069999 0.0047306535 0.055732857 0.025864571 0.026950005 -0.01913496 0.015884815 0.013687522
-0.0006283374 0.24017 -0.047652144 0.05432943 -0.07115685 -0.051491816 0.024070889 0.0346208
0.014416551 -0.076069325 0.15067813 0.036576264 0.010673232 -0.014201497 0.020481268 -0.064581275
0.06989485 0.016077423 0.105154514 -0.25021395 0.02051051 -0.020344486 0.0008539619 0.005027127
0.0032069283 0.01528946 0.0061018434 -0.02190698 0.073068015 0.0024289067 0.014650041 -0.008389529
-0.0039378186 -0.04641179 0.053303428 -0.00835979 0.063293815 -0.22044222 -0.06529901 0.011388225
-0.02292774 -0.020427829 0.019102536 0.025074303 -0.029757775 -0.12467311 0.036613684 -0.024375305
-0.032353096 0.052443415 0.031163037 -0.09347313 0.03678774 0.020843815 -0.013510894 0.26581287
0.04069783 0.0052806777 0.0005890773 -0.009414247 0.02425762 0.00853404 -0.04120879 -0.09663482
-0.022468787 -0.008729444 0.05399602 0.029192666 -0.014198545 -0.016816197 0.022649733 -0.008487472
0.00065275125 0.017728483 0.015290238 0.008340347 -0.018398505 0.016425533 0.04136752 0.01968597
0.043845646 -0.03380438 0.25227064 -0.0101457555 -0.00068499614 -0.0047437614 -0.004612441 0.06950709
0.011791734 -0.06656484 -0.07178635 0.085240036 0.0366717 -0.051416613 -0.032990277 -0.029631121
0.027257923 0.030214425 0.0057457676 -0.01929669 -0.026238147 -0.005580469 0.01093334 0.010447246
0.0067124483 -0.03239665 -0.06322478 0.033115134 -0.12983227 -0.5253974 0.043201376 -0.029556835
-0.050901458 0.07848136 0.010406061 0.06182185 0.016655726 0.08893551 0.008241504 0.0253451
0.0385308 0.046492424 -0.022712303 0.023318509 -0.07889163 0.011250458 -0.16881435 -0.077006824
0.07345298 -0.061025422 0.008035009 0.066884466 0.09067618 -0.028432515 -0.037299726 -0.1323393
-0.074080445 -0.004888282 -0.038170625 0.055922646 0.01984583 0.31443262 -0.21400979 -0.18021123
-0.2542801 -0.03291213 0.08719 -0.19571225 0.103735 0.099803895 -0.08449093 0.0039111655
0.03304563 0.16000865 0.15843447 0.029350597 0.033283744 -0.031631153 -0.027966717 0.03606618
0.019466102 0.032949835 0.24753788 0.32932442 0.089487225 0.03243376 0.015637165 0.044113852
-0.12678313 0.008553263 -0.1142552 -0.45890036 -0.5752789 -0.33690578 -0.066803545 -0.043102033
-0.13471802 -0.029383918 -0.0022426352 0.0038611845 0.1447907 -0.14824808 -0.024959354 -0.03546338
0.049274255 0.046445195 -0.050398767 0.017846182 -0.0023279411 0.11372152 -0.20923775 -0.049483772
0.013108389 -0.063293636 -0.007353007 -0.09902015 0.03767019 0.041866496 0.26828882 0.42730293
-0.008922553 0.041950185 0.03419152 -0.010235916 0.07642654 -0.045322154 -0.00040450945 0.045392998
00000000: cfff 60be d34a 2b3d ef80 3b3d 0e58 813d
00000010: d777 7dbe 8a4a 6fbd 982e 9c3c 74fe 55bd
00000020: 8a9c 39bd 763f 8abc 3d40 edbc 8fb2 fabc
00000030: 5332 133d 7642 24be 3d26 dabc b479 d6bc
00000040: 50cb 04bd f2ef d0bc 67f3 413d f03b 04bd
00000050: a18d f2bb 0f69 86bc a74d 07bd a223 8ebc
00000060: 0c85 8d3c 1a63 6cbc 356a 57bd 4b0f 1bbc
00000070: ee6c b6bc 5c1f c3bb ccac 02be ccdf 183d
00000080: f8ba cb3c 4299 0bbd 3669 36ba a22a a9bb
00000090: d7d1 183d 4016 153b 485c ee3c e1c7 51be
000000a0: 38d6 05be 9903 9b3b 2348 643d f0e1 d33c
000000b0: 42c6 dc3c ebc0 9cbc df20 823c a141 603c
000000c0: 02b7 24ba 20ef 753e e52e 43bd 8988 5e3d
000000d0: afba 91bd 15e9 52bd 5030 c53c 8ace 0d3d
000000e0: 6633 6c3c 3cca 9bbd 5e4b 1a3e fed0 153d
000000f0: c8de 2e3c 65ad 68bc 55c8 a73c 3043 84bd
00000100: 0825 8f3d cdb4 833c 405b d73d 0b1c 80be
00000110: a805 a83c 7ba9 a6bc 6adc 5f3a 99ba a43b
00000120: 542b 523b a580 7a3c f9f1 c73b 4476 b3bc
00000130: afa4 953d 4b2e 1f3b ba06 703c 3c74 09bc
00000140: d108 81bb 4a1a 3ebd b254 5a3d 80f7 08bc
00000150: 30a0 813d 9bbb 61be 7dbb 85bd ad95 3a3c
00000160: f5d2 bbbc 4358 a7bc ec7c 9c3c a068 cd3c
00000170: 94c6 f3bc 9e54 ffbd 3bf8 153d b8ae c7bc
00000180: ae84 04bd e8ce 563d a049 ff3c d76e bfbd
00000190: beae 163d a6c0 aa3c cc5c 5dbc a018 883e
000001a0: c5b2 263d 8909 ad3b 4f6c 1a3a 373e 1abc
000001b0: ebb7 c63c 5cd2 0b3c 8cca 28bd 7ae8 c5bd
000001c0: 7610 b8bc f105 0fbc ee2a 5d3d 7525 ef3c
000001d0: 04a1 68bc 1fc2 89bc ef8b b93c 0a0f 0bbc
000001e0: 651d 2b3a 533b 913c e883 7a3c f3a5 083c
000001f0: 76b8 96bc d78e 863c fd70 293d 7944 a13c
00000200: 7e97 333d 7676 0abd 9e29 813e 623a 26bc
00000210: 5091 33ba 8e71 9bbb f623 97bb bc59 8e3d
00000220: 1e32 413c 2653 88bd b904 93bd 5492 ae3d
00000230: 1135 163d 3a9a 52bd d020 07bd f7bc f2bc
00000240: 024c df3c 3e84 f73c fe46 bc3b 1814 9ebc
00000250: 62f1 d6bc 5edc b6bb c021 333c ed2a 2b3c
00000260: 19f4 db3b 5ab2 04bd fe7b 81bd bca3 073d
00000270: c0f2 04be 7280 06bf edf3 303d 2d21 f2bc
00000280: 0c7e 50bd d6ba a03d 2f7e 2a3c e838 7d3d
00000290: 9771 883c d223 b63d 6007 073c 87a0 cf3c
000002a0: 79d2 1d3d d76e 3e3d 270f babc 7506 bf3c
000002b0: ef91 a1bd d753 383c abdd 2cbe c1b5 9dbd
000002c0: 846e 963d cbf5 79bd 45a5 033c b9fa 883d
000002d0: 6fb4 b93d 4eeb e8bc 99c7 18bd f483 07be
000002e0: 7db7 97bd e22d a0bb cd58 1cbd 250f 653d
000002f0: b993 a23c 50fd a03e 6225 5bbe 4b89 38be
00000300: 0031 82be dfce 06bd ac90 b23d cb68 48be
00000310: 0473 d43d fc65 cc3d 9509 adbd 3c29 803b
00000320: db5a 073d 4fd9 233e a53c 223e aa70 f03c
00000330: 8954 083d ab8f 01bd 751a e5bc 21ba 133d
00000340: 6077 9f3c 68f6 063d 927a 7d3e 369d a83e
00000350: 1445 b73d 43d9 043d 8319 803c bab0 343d
00000360: 70d3 01be fc22 0c3c a1fe e9bd fdf4 eabe
00000370: 7a45 13bf ea7e acbe 4cd0 88bd c28b 30bd
00000380: 85f3 09be 8bb6 f0bc 2df9 12bb ed0b 7d3b
00000390: 0344 143e 58ce 17be 8f77 ccbc 0d42 11bd
000003a0: cdd3 493d 513d 3e3d f06e 4ebd 2832 923c
000003b0: 5f90 18bb d4e6 e83d 6c42 56be 7faf 4abd
000003c0: 92c4 563c 18a0 81bd 7ef1 f0bb 14cb cabd
000003d0: 0f4c 1a3d 347c 2b3d 275d 893e 73c7 da3e
000003e0: e62f 12bc f5d3 2b3d 680c 0c3d 8bb4 27bc
000003f0: 8585 9c3d b9a3 39bd 5714 d4b9 02ee 393d

model.6.bias f4 [64]
-0.30698058 0.44401893 0.5408951 0.77251333 0.28818092 0.0138432905 0.040314708 -0.08519046
0.29895896 0.82935894 -0.0068767574 -0.20968823 0.2244268 -0.08758367 -0.10702403 -0.51463956
0.12304832 -0.074671924 0.058477648 0.48198697 0.0875173 -0.19040686 0.044137552 0.41256943
0.033008832 0.0315992 0.04466232 0.6719789 -0.042640578 0.7554476 0.21547881 0.008965364
0.2182049 0.25990722 -0.28049278 0.0331984 0.56893086 -0.12183684 0.39068425 0.38866395
0.021795962 0.45817056 0.44752896 0.067747824 0.036991697 0.17764102 0.42413107 -0.5811484
-0.1718745 0.47541863 0.63936675 0.7451799 0.6236969 -0.70909315 0.9063109 0.65098923
0.7233734 -0.061950684 1.0098099 0.5892554 -0.07471907 1.1170974 0.19778796 1.3327439
00000000: 8f2c 9dbe 7356 e33e 1a78 0a3f 6fc3 453f
00000010: 738c 933e f8ce 623c 0921 253d 5678 aebd
00000020: 2611 993e de50 543f 6c56 e1bb 83b8 56be
00000030: 24d0 653e 115f b3bd 6a2f dbbd 6bbf 03bf
00000040: c200 fc3d 98ed 98bd 4286 6f3d ffc6 f63e
00000050: 453c b33d 04fa 42be 94c9 343d 4d3c d33e
00000060: 4534 073d 2a6e 013d d6ef 363d cf06 2c3f
00000070: e3a7 2ebd 0465 413f 7aa6 5c3e 76e3 123c
00000080: 1b71 5f3e 8f12 853e c09c 8fbe 0cfb 073d
00000090: 74a5 113f 9885 f9bd c407 c83e f6fe c63e
000000a0: 728d b23c 5595 ea3e 8422 e53e 5fbf 8a3d
000000b0: 9b84 173d 87e7 353e b527 d93e 24c6 14bf
000000c0: deff 2fbe 126a f33e 8aad 233f 1cc4 3e3f
000000d0: 9aaa 1f3f 2187 35bf fe03 683f 3ba7 263f
000000e0: 002f 393f 00c0 7dbd 7341 813f 71d9 163f
000000f0: 5006 99bd 0cfd 8e3f ed88 4a3e 5a97 aa3f

model.8.weight f4 [64, 64, 3, 3]
-0.0032066556 -0.010715308 0.013212478 -0.0125857685 -0.0041220663 -0.0020161415 -0.02885113 -0.002923317
-0.004164979 0.046357695 0.087046996 0.0660891 -0.022438062 0.007491241 0.056087233 0.015480954
-0.024856903 -0.0492383 0.034911275 -0.06020945 0.013383832 0.05461378 0.1220866 -0.012138208
0.029190738 0.021613775 0.02825364 0.019174736 -0.012221418 0.0805148 0.026025284 0.014132288
0.057689257 -0.02716956 0.024862954 -0.018938674 0.02858059 0.0065155383 0.028054284 -0.03005058
-0.21469668 0.030494498 0.045690592 -0.016354606 0.03340403 -0.015911773 -0.015641615 0.021799674
0.016328497 -0.15360376 -0.005085992 -5.9060938e-05 0.06635545 0.040175635 -0.04380123 -0.027817069
-0.014439891 -0.024911081 0.011327029 -0.015961388 -0.034351885 -0.01989228 -0.025638321 -0.015840875
-0.01323052 0.014389731 -0.06969981 -0.15762767 0.0052683842 -0.0001735716 0.057497215 -0.00046489338
-0.011274125 -0.006401015 -0.064874366 -0.034968644 -0.1478638 -0.051523022 -0.050312 -0.0069357306
-0.004387102 -0.027531719 0.09120957 -0.037550572 -0.013974386 -0.054253556 0.0021767041 0.029414563
0.00034304528 0.026875947 -0.008249289 0.01128228 -0.018321438 0.026781924 0.11900722 0.04518274
-0.03599275 -0.016804453 -0.005287458 0.018918356 -0.016082356 0.011519475 -0.028024968 0.008569793
0.011934153 0.03445192 0.119514614 0.012818656 0.05661925 0.14517587 0.07348021 0.030292358
-0.17477182 0.02738728 0.019169606 0.024592897 0.033337757 0.0003458857 0.0077548707 0.027613385
0.032886352 -0.0149190705 -0.048083827 0.022987282 0.013091894 0.0048207995 0.006424802 0.023010798
0.042712707 -0.002966456 0.09588737 0.049914416 0.03955601 0.05878691 0.04110748 0.01930295
0.09889877 0.016633116 0.038653713 -0.07708511 -0.03330543 0.014671006 0.0056780973 -0.002820305
0.03219408 -0.041718516 -0.007921675 -0.020906014 -0.22885473 -0.025500176 0.0361249 -0.023082672
0.044487648 0.005554423 -0.03470622 -0.0120129315 -0.066364035 0.11103321 -0.1373296 -0.008344809
-0.04700497 -0.039512444 -0.03096819 0.03444172 0.011267684 -0.011897799 0.068135984 -0.050478596
0.014068022 0.041746985 0.0098259365 -0.10184568 -0.08375842 -0.0007264027 -0.040765896 0.117193386
-0.13792306 -0.08082907 -0.0074403044 -0.071383126 -0.08520633 -0.119307935 -0.06526735 -0.041740593
0.041084662 -0.013095313 -0.05505176 -0.11528127 -0.05974734 -0.05866821 -0.0049595446 -0.08034366
-0.078168385 0.020721573 -0.016978603 -0.041568175 -0.028533429 -0.04251113 0.046223637 0.03631664
0.08360336 0.12197968 -0.036747098 0.0671768 0.03436253 -0.022272537 0.0057772226 -0.019052552
-0.02719804 -0.0027027552 -0.053560294 0.04649759 -0.081181616 -0.027787708 -0.0889246 -0.0601146
-0.008833066 0.0071264277 0.016321773 -0.039484225 0.12614074 0.050696455 -5.0719616e-05 0.006931203
-0.010338391 0.0036658663 -0.022528356 -0.00066448277 -0.0157353 -0.02612862 -0.025303306 0.008453912
-5.8676625e-05 0.009699292 0.01904288 0.0018520082 0.047102712 -0.02745685 -0.0023683207 -0.01694535
-0.011028404 0.016762506 0.01268975 0.01562403 -0.00537047 0.01880066 -0.06277689 -0.19538143
-0.06928159 0.014459914 0.016089188 0.01678915 -0.066630214 -0.084030114 -0.053934302 -0.026082024
00000000: c126 52bb 428f 2fbc 2679 583c 8a34 4ebc
00000010: 6612 87bb 3e21 04bb 3459 ecbc 1f95 3fbb
00000020: 607a 88bb 91e1 3d3d b245 b23d b959 873d
00000030: 07d0 b7bc 1679 f53b babb 653d d4a3 7d3c
00000040: b4a0 cbbc 1aae 49bd 20ff 0e3d 2f9e 76bd
00000050: dc47 5b3c b3b2 5f3d 8a08 fa3d 56df 46bc
00000060: 6a21 ef3c 5f0f b13c 2d74 e73c 5614 9d3c
00000070: 583c 48bc f2e4 a43d fa32 d53c 1d8b 673c
00000080: 924b 6c3d b292 debc 65ad cb3c 4725 9bbc
00000090: d721 ea3c 4c80 d53b 19d2 e53c a22c f6bc
000000a0: 72d9 5bbe 99cf f93c 0f26 3b3d 18fa 85bc
000000b0: aad2 083d 6859 82bc d822 80bc 3b95 b23c
000000c0: 57c3 853c 4e4a 1dbe 65a8 a6bb 33b8 77b8
000000d0: 5ee5 873d 358f 243d eb68 33bd 9fe0 e3bc
000000e0: 4b95 6cbc 5312 ccbc 0195 393c 75c1 82bc
000000f0: 90b4 0cbd 23f5 a2bc 7507 d2bc b9c4 81bc
00000100: d3c4 58bc e8c2 6b3c c6be 8ebd 2669 21be
00000110: 69a2 ac3b c600 36b9 3382 6b3d efbc f3b9
00000120: 1cb7 38bc 9bbf d1bb dadc 84bd 483b 0fbd
00000130: 9c69 17be ce09 53bd f513 4ebd 2045 e3bb
00000140: aec1 8fbb 338a e1bc 15cc ba3d a1ce 19bd
00000150: d3f4 64bc fa38 5ebd 09a7 0e3b cff6 f03c
00000160: c2da b339 f22a dc3c 0728 07bc 50d9 383c
00000170: d716 96bc c465 db3c 0fba f33d 8911 393d
00000180: 226d 13bd 7ea9 89bc 6a42 adbb abfa 9a3c
00000190: 25bf 83bc 2ebc 3c3c 9e94 e5bc 5168 0c3c
000001a0: 7787 433c 751d 0d3d 14c4 f43d 5705 523c
000001b0: 96e9 673d fca8 143e cb7c 963d ae27 f83c
000001c0: 62f7 32be 4a5b e03c 9409 9d3c 0b77 c93c
000001d0: 2c8d 083d fe57 b539 921c fe3b 7735 e23c
000001e0: d7b3 063d 1e6f 74bc 8cf3 44bd d34f bc3c
000001f0: 627f 563c ccf7 9d3b 2587 d23b 2481 bc3c
00000200: 85f3 2e3d e068 42bb 9960 c43d 0f73 4c3d
00000210: 7c05 223d 8bca 703d 5160 283d 3821 9e3c
00000220: 708b ca3d 2c42 883c 5b53 1e3d ccde 9dbd
00000230: 466b 08bd a95e 703c 550f ba3b ded4 38bb
00000240: f1dd 033d 09e1 2abd eac9 01bc 1743 abbc
00000250: e558 6abe bfe5 d0bc b4f7 133d df17 bdbc
00000260: ae38 363d e101 b63b 1c28 0ebd e3d1 44bc
00000270: dee9 87bd 6165 e33d 21a0 0cbe aab8 08bc
00000280: 4988 40bd cdd7 21bd 00b1 fdbc c312 0d3d
00000290: 189c 383c fcee 42bc e18a 8b3d a5c2 4ebd
000002a0: 907d 663c e3fe 2a3d f7fc 203c 7894 d0bd
000002b0: 8989 abbd 0f6c 3eba 24fa 26bd 1603 f03d
000002c0: b43b 0dbe b689 a5bd cccd f3bb 5131 92bd
000002d0: a880 aebd b857 f4bd e3aa 85bd 2ff8 2abd
000002e0: 6448 283d b98d 56bc f47d 61bd 9618 ecbd
000002f0: a0b9 74bd 144e 70bd ad83 a2bb 388b a4bd
00000300: bf16 a0bd 4ac0 a93c b616 8bbc 6443 2abd
00000310: f0be e9bc 2720 2ebd ff54 3d3d c2c0 143d
00000320: 3d38 ab3d 7cd0 f93d 2084 16bd fd93 893d
00000330: b9bf 0c3d e574 b6bc db4e bd3b 1914 9cbc
00000340: 6dce debc b520 31bb 0a62 5bbd 4274 3e3d
00000350: 8c42 a6bd 0ca3 e3bc 1a1e b6bd ba3a 76bd
00000360: 90b8 10bc cf84 e93b 3db5 853c 36ba 21bd
00000370: 0a2b 013e 16a7 4f3d c6bb 54b8 251f e33b
00000380: 5b62 29bc 083f 703b 638d b8bc af30 2eba
00000390: 51e7 80bc b00b d6bc e148 cfbc 4782 0a3c
000003a0: 8c1b 76b8 c7e9 1e3c d0ff 9b3c 15bf f23a
000003b0: c6ee 403d 30ed e0bc d435 1bbb fad0 8abc
000003c0: 7bb0 34bc 8651 893c abe8 4f3c eefb 7f3c
000003d0: c5fa afbb d703 9a3c 2c91 80bd 1212 48be
000003e0: 82e3 8dbd 46e9 6c3c 79cd 833c 6689 893c
000003f0: 6c75 88bd fb17 acbd 37ea 5cbd f8a9 d5bc

model.8.bias f4 [64]
0.4963786 0.5235659 -0.027454287 0.1800269 -0.017272063 0.44604334 0.3800944 -0.14024162
0.17522864 0.42515492 0.5196793 0.2470309 0.794094 0.44125217 1.1932696 0.3422914
0.35050738 0.97637445 0.37669992 0.49128386 0.14992045 0.65284735 0.38592085 0.6363783
0.36704522 0.5535725 0.7157923 -0.115506664 -0.22543369 0.35480672 -0.62062997 1.1891227
0.7402572 0.057180427 0.04480787 -0.112886585 0.46350124 0.10443402 0.9226215 -0.04119238
0.24045815 -0.6849458 0.3383142 0.39795327 0.452386 0.06889089 -0.23630272 0.06021006
0.4881299 0.41285703 0.550628 0.17949517 0.8921795 0.3482183 0.051014356 0.6178898
0.3560768 0.2183805 0.27786157 0.34217456 0.2640845 0.62720686 0.41945305 0.54821527
00000000: 5625 fe3e 6a08 063f d0e7 e0bc f958 383e
00000010: 247e 8dbc cb5f e43e bc9b c23e 809b 0fbe
00000020: 236f 333e e8ad d93e b409 053f abf5 7c3e
00000030: bf49 4b3f ceeb e13e 0fbd 983f d240 af3e
00000040: b475 b33e adf3 793f d0de c03e 8f89 fb3e
00000050: bf84 193e 0121 273f 6b97 c53e b0e9 223f
00000060: 5aed bb3e edb6 0d3f 2a3e 373f c28e ecbd
00000070: 17d8 66be 3aa9 b53e 9be1 1ebf 2c35 983f
00000080: 7f81 3d3f 0636 6a3d 7588 373d 1531 e7bd
00000090: 0950 ed3e 81e1 d53d ec30 6c3f 57b9 28bd
000000a0: a93a 763e 9c58 2fbf 8537 ad3e 88c0 cb3e
000000b0: 239f e73e ab16 8d3d 57f9 71be d39e 763d
000000c0: 2aec f93e ff61 d33e f5f5 0c3f 95cd 373e
000000d0: e065 643f ab49 b23e 6ef4 503d 072e 1e3f
000000e0: b34f b63e 239f 5f3e df43 8e3e 8131 af3e
000000f0: 1536 873e a190 203f 8dc2 d63e d657 0c3f

model.10.weight f4 [64, 64, 3, 3]
-2.2030204e-05 0.00096653024 -0.00073524757 0.0038570235 0.011485156 0.003987328 -0.0011075382 -0.0012821604
-0.002740114 0.0040297355 -0.007659922 -0.0043297294 -0.006543474 -0.009165076 -0.010301208 -0.0030751915
-0.0068736863 0.0032010823 0.0074155433 -0.011628699 -0.011272327 -1.9531304e-05 -0.007451774 -0.009846884
0.008581123 0.008683462 -0.0018971342 0.0066768294 0.00066140946 -0.0011151872 0.008190895 0.019692196
0.015006598 0.00040455777 0.0058392882 0.008349293 0.006963487 -0.0006386136 -0.0022523443 -0.006601124
-0.03497838 -0.0016365321 0.001087241 -0.005532341 0.007416412 -0.009121608 0.001288928 -0.0045321845
-0.009207125 0.0051135197 -0.0032228907 -0.003320039 -0.009363133 0.0035577815 0.0055750837 -0.004729629
0.010123901 0.011933277 -0.0013156671 -0.0031709878 0.002784403 -0.0028178405 -0.0036750343 0.0063558808
-0.00019977656 -0.0071480903 -0.0006112773 -0.016522538 -0.006694752 0.006298867 -0.0024607847 0.0010746679
0.002522458 -0.0012784016 0.0045212656 0.009367681 -0.008965599 0.024523675 0.0029242698 0.0016573822
0.009522119 0.0069033694 0.00059877714 -0.00091193174 -0.005746061 8.380336e-05 0.0020566843 -0.002530324
-0.003442064 0.007143734 0.0076471535 -0.00041880866 0.0011852785 0.008891557 0.005600643 0.0005585901
-0.0011377939 0.00088519615 -0.0060048453 -0.0008876611 -0.0049089547 -0.0039163977 0.021172218 0.0042904797
-0.0053702835 0.016624201 0.012396052 -0.00434012 0.0017684409 -0.0017243931 0.0020043827 -0.0035702726
-0.0015104791 -0.0016000199 0.0016567272 0.0011847935 -0.0002913412 -0.0025190401 0.0019251235 0.006227767
0.004430077 -0.013038451 0.009277924 0.0056066373 -0.0044589886 -0.0045769326 0.006783304 -0.0014714085
-0.0058302693 0.020013738 0.01391427 -0.016578635 0.009774458 0.0033756061 -0.003573148 -0.0038285912
-0.00182747 0.0052205706 -0.00050665106 -0.011417355 0.008462732 0.007802255 0.002887998 0.0009642414
-0.0024311163 0.006064275 0.0047078296 -0.0053586136 0.0053893877 0.011889603 -0.000238503 -0.002712831
0.0008448643 0.0011717426 0.0013531491 0.0057323854 0.015319928 0.006965472 0.009524113 0.0021993343
0.0046537253 0.006390895 -0.0011441672 0.0034722898 0.005570014 -0.002464389 0.0045212256 0.0024852413
-0.010170651 -0.004352325 0.0029507861 -0.0010300517 -0.0055666952 -0.003051712 -0.0072930995 -0.007058379
-0.0021257594 0.00069057517 0.0068176044 0.0066713127 -0.0036089483 9.9825345e-05 0.002001248 -0.0022332652
0.0066581457 -0.0066188923 -0.003763793 0.0035499518 -0.007528057 -0.0079292115 -0.008189277 -0.006699262
-0.008952712 -0.027860673 -0.0391072 -0.002104457 -0.011466677 -0.012965453 0.004349288 0.0017271431
-0.0009348319 -0.005474101 -0.022023149 -0.004675327 -0.0021380435 -0.0023316408 -0.004683822 -0.004334978
-0.003911405 -0.0009505539 -0.015170746 0.00027343826 0.0009084157 0.0007821623 9.497242e-05 -0.0049762856
-0.006205724 -0.0012355461 0.0067471974 0.0024180408 -0.009144941 0.0011365437 -0.0015724804 -0.009063262
-0.007933681 -0.0060151084 0.002216363 0.006897268 -0.008276172 -0.006853866 -0.0044856393 -0.0021875065
-0.007829609 -0.0061190156 -0.0035797313 0.0050665163 0.010120234 -0.0047498895 0.0021101318 0.013736807
-0.00034162655 0.0034309416 0.0059647425 -0.0010278339 0.005555396 -0.0044031874 0.004281957 0.004406534
-0.021308098 0.0017308369 0.002702549 -0.0012005796 0.0003907548 0.0021715683 0.002414882 0.0031200228
00000000: 81cd b8b7 bf5e 7d3a a1bd 40ba 1ec6 7c3b
00000010: 3c2c 3c3c 22a8 823b d12a 91ba 2a0e a8ba
00000020: 7c93 33bb df0b 843b 1500 fbbb 67e0 8dbb
00000030: a36a d6bb 1d29 16bc 66c6 28bc 2789 49bb
00000040: a93c e1bb 40c9 513b 16fe f23b 4c86 3ebc
00000050: 91af 38bc 28d7 a3b7 032e f4bb d354 21bc
00000060: d797 0c3c 1445 0e3c 43a9 f8ba 4ec9 da3b
00000070: 7062 2d3a 792b 92ba 1b33 063c 8751 a13c
00000080: 3cde 753c d31a d439 8057 bf3b 79cb 083c
00000090: f62d e43b a268 27ba 119c 13bb 3e4e d8bb
000000a0: 7d45 0fbd e880 d6ba c181 8e3a a448 b5bb
000000b0: 5f05 f33b cc72 15bc 3ff1 a83a b882 94bb
000000c0: 7bd9 16bc 508f a73b 2237 53bb 0395 59bb
000000d0: d467 19bc ab29 693b 31af b63b 01fb 9abb
000000e0: b8de 253c cb83 433c 7672 acba 59d0 4fbb
000000f0: 887a 363b 85ab 38bb d8d8 70bb fe44 d03b
00000100: 1d7b 51b9 873a eabb 203e 20ba 465a 87bc
00000110: a65f dbbb ba66 ce3b 1e45 21bb dfdb 8c3a
00000120: d34f 253b 0a90 a7ba 2027 943b e77a 193c
00000130: 73e4 12bc e0e5 c83c 1ba5 3f3b 853c d93a
00000140: a902 1c3c a935 e23b 41f7 1c3a b40e 6fba
00000150: 7449 bcbb 96bf af38 70c9 063b cbd3 25bb
00000160: 4094 61bb fc15 ea3b f994 fa3b 8c93 dbb9
00000170: 595b 9b3a e5ad 113c 9985 b73b 596e 123a
00000180: 0722 95ba 820c 683a 4bc4 c4bb eeb1 68ba
00000190: 4cdb a0bb 2055 80bb 5c71 ad3c 2797 8c3b
000001a0: 34f9 afbb 7a2f 883c cf18 4b3c 9137 8ebb
000001b0: 08cb e73a 0805 e2ba f65b 033b 3cfb 69bb
000001c0: 45fb c5ba c2b7 d1ba 8a26 d93a 134b 9b3a
000001d0: 27bf 98b9 7b16 25bb 6d54 fc3a 4c12 cc3b
000001e0: 2e2a 913b 3a9f 55bc 6f02 183c e2b7 b73b
000001f0: b51c 92bb 18fa 95bb 7a46 de3b 47dc c0ba
00000200: d80b bfbb daf3 a33c aef8 633c ebcf 87bc
00000210: 0c25 203c 4639 5d3b 7a2b 6abb 1ae9 7abb
00000220: b887 efba 5211 ab3b c7d0 04ba dc0f 3bbc
00000230: 45a7 0a3c 0faa ff3b 9144 3d3b 25c5 7c3a
00000240: 5d53 1fbb d3b6 c63b 2344 9a3b 4f97 afbb
00000250: 7699 b03b 9ccc 423c a916 7ab9 c0c9 31bb
00000260: e279 5d3a 2895 993a 265c b13a bcd6 bb3b
00000270: 6f00 7b3c 9d3e e43b 060b 1c3c b522 103b
00000280: 477e 983b b76a d13b e1f7 95ba 5b8f 633b
00000290: aa84 b63b 9681 21bb ca26 943b 6edf 223b
000002a0: cda2 26bc f39d 8ebb fa61 413b cd02 87ba
000002b0: d368 b6bb 3bff 47bb f4fa eebb f949 e7bb
000002c0: 5350 0bbb b707 353a 3666 df3b 079b da3b
000002d0: 1b84 6cbb 5359 d138 5f27 033b f95b 12bb
000002e0: 932c da3b 4be3 d8bb f8a9 76bb 4fa6 683b
000002f0: ebad f6bb 86e9 01bc 512c 06bc 7c85 dbbb
00000300: 65ae 12bc 113c e4bc df2e 20bd eeea 09bb
00000310: bbde 3bbc 0d6d 54bc 7984 8e3b 4e61 e23a
00000320: 820f 75ba 1660 b3bb e469 b4bc 7c33 99bb
00000330: 6b1e 0cbb 71ce 18bb bf7a 99bb 6e0c 8ebb
00000340: 3e2b 80bb 982e 79ba b88e 78bc 435c 8f39
00000350: bf22 6e3a 060a 4d3a ee2b c738 1c10 a3bb
00000360: 6359 cbbb 0cf2 a1ba 9817 dd3b fe77 1e3b
00000370: aad4 15bc 14f8 943a b01b ceba 137e 14bc
00000380: 45fc 01bc 631a c5bb 6740 113b 7a02 e23b
00000390: c898 07bc 6596 e0bb 45fc 92bb 455c 0fbb
000003a0: c347 00bc 0682 c8bb ed99 6abb 0505 a63b
000003b0: 57cf 253c f6a4 9bbb 234a 0a3b 5810 613c
000003c0: 571c b3b9 a6d9 603b e373 c33b 62b8 86ba
000003d0: 0a0a b63b 9d48 90bb a94f 8c3b b064 903b
000003e0: 528e aebc 40dd e23a 401d 313b c45c 9dba
000003f0: 39de cc39 df50 0e3b ff42 1e3b 4c79 4c3b

model.10.bias f4 [64]
0.03970077 0.121226534 0.14397365 0.17614111 0.023237424 -0.026226789 -0.14329831 0.18956973
0.045946162 0.057257712 0.08474903 0.040590513 0.0775298 -0.018647017 -0.06702252 -0.023902673
0.0378608 0.025157537 -0.10289495 -0.019548597 0.06727688 0.11058699 0.012419003 0.059831824
-0.02459102 0.026858618 0.061108705 0.060577907 -0.04767874 0.0400419 0.17221297 -0.09817285
0.020549858 -0.16557623 0.11762252 0.035980567 -0.055900298 0.15242952 0.0026149421 0.05239032
0.054990496 -0.121231064 0.017186062 0.031040207 -0.17225505 0.06912165 0.06266975 0.031324044
0.027435305 0.07187751 -0.020368611 0.039986927 0.10842709 0.18136889 0.089198425 -0.057885833
0.18634742 0.00621361 0.016191108 0.09133786 -0.008748841 0.042670127 0.09095567 0.008988111
00000000: 469d 223d 9e45 f83d d46d 133e 565e 343e
00000010: 695c be3c 90d9 d6bc cbbc 12be 911e 423e
00000020: 0b32 3c3d 1087 6a3d e690 ad3d 3d42 263d
00000030: f2c7 9e3d a1c1 98bc 1a43 89bd 8acf c3bc
00000040: ed13 1b3d 2e17 ce3c 96ba d2bd 6124 a0bc
00000050: 76c8 893d 6f7b e23d 1379 4b3c 3712 753d
00000060: 1b73 c9bc 9b06 dc3c 1f4d 7a3d 8a20 783d
00000070: c84a 43bd fa02 243d 9958 303e d90e c9bd
00000080: 2d58 a83c d18c 29be 13e4 f03d 5c60 133d
00000090: b6f7 64bd 7c16 1c3e 735f 2b3b 3b97 563d
000000a0: b73d 613d fe47 f8bd c9c9 8c3c 0848 fe3c
000000b0: a163 30be a78f 8d3d ff58 803d a44d 003d
000000c0: 01c0 e03c 8434 933d 13dc a6bc 55c9 233d
000000d0: 060f de3d c4b8 393e aaad b63d b219 6dbd
000000e0: dcd1 3e3e 8a9b cb3b 37a3 843c 580f bb3d
000000f0: 4c57 0fbc dfc6 2e3d f746 ba3d df42 133c
